DQN_RM/trained_models/chain_agent.pt (torch, 22431 bytes, 6 tensors)

model.0.weight f4 [64, 10]
00000000: d603 ff3d 518e 9cbe d061 1dbe e975 00bf
00000010: 795b 02bf c062 a6bf 7d74 8cbf 6cdc 23bf
00000020: bb17 2bbf 5968 783e a035 2240 14d7 2140
00000030: c24f 5b40 cc90 e73f e309 e43f 31c5 2040
00000040: 5b11 6040 1b7a 893e d4ba 6a3e b9f8 bc3e
00000050: 034b 683d c8bf 72be 1adc c0be f5a7 c03d
00000060: be75 5b3e 6e7f b2be c3fb 93bd a6e7 c33c
00000070: 45eb 18be 0eb5 8dbd f238 58be 2717 19be
00000080: 569b 93be 0027 f0bb e6ff 3f3e f87e 1d3e
00000090: 2b19 983e 5a32 8ebe 585f 1fbd 9ba3 9d3e
000000a0: df6f 2bbe bc1f 58be 95e8 a3be 008b e23d
000000b0: 9f96 3f3e 40d4 663d 0362 723e b083 16bf
000000c0: 4f09 02bf 976c b2bf 019e 9e3c 4fe4 6ebe
000000d0: 25c1 89be c742 cabe ebcc 5a3d ac10 943a
000000e0: 49b3 ac3c b6e3 673d 29d7 e5bf be88 18bf
000000f0: 5ebb 33be c3ad 38be 0e48 adbd 5652 d1bd
00000100: f837 5cbe 0fd8 823e f860 103d 00a2 133e
00000110: 6630 703e 2ad5 51be f98f 90be d834 21bf
00000120: 2e28 c8be c4e7 a43d 742c 89bd 23f0 c5bd
00000130: 234d 93be 013b 703f 578d 4f3f 524c cfbd
00000140: 5cff 2bbe 6915 aabd 5d3b c9bd 0c88 df3d
00000150: ec54 213e 602f 69be cccf 32be c82e c7bd
00000160: 3026 2d3d 6666 fbbd 2666 49be b892 6cbd
00000170: 4c06 1ebe 60a4 0e3c 6eb5 6fbe c2e5 a1bd
00000180: 88f5 eebd a0eb 32bd 826e 7e3e 9a55 543e
00000190: bcfe d0bd 0771 94be 569f 67be 686d 78be
000001a0: a0cb f5bc aacd 0fbe 9c4c 62be d097 8f3d
000001b0: 80b4 a63c d02e 42bd f4e4 d33f a9bb 60c0
000001c0: 00d8 94bf 2582 04bf 07e8 92bd 78d8 36bf
000001d0: fa61 1d3c 5090 f7be e94b 9fbd 63cc 96be
000001e0: cf50 123d 156b 4cbe f866 233e e3c3 36be
000001f0: ddb5 6bbe 2663 683e 008f c33c ba10 6c3d
00000200: 3cac 61be 0e5a 8fbd bbc1 78be bddf 59be
00000210: 187f 39bd e067 7a3d efa9 84be 135c 9d3e
00000220: fe28 6e3e a9ad 96be 0269 4a3e 3350 42be
00000230: d5ef 83be 43af 973e c636 02be a4d5 d6bd
00000240: 7069 213d 0807 373e 3047 c73c 400b aebd
00000250: 70a4 db3c bdc5 27be 4801 92be edc5 de3c
00000260: aec5 b2bc 68dd d03d f8ce 2dbe 3807 a0be
00000270: f0b2 a0bd 22aa 9cbe d0f5 cbbc 702f 1e3e
00000280: 8533 05be 7053 d1bc e120 0cbe 0849 93bd
00000290: 75cd f03d 1f64 1ebe 481c ac3d f712 ccbe
000002a0: 54d4 8dbb beba c73e 224a 9ebe ffa1 5e3e
000002b0: 83a3 90bc a8d5 6cbd f0e0 b2be f8cd a1be
000002c0: ed5e 7ebe 1a6f 87be fbf0 57be 7a99 bcbd
000002d0: 7c34 a1be 825a 87be 8028 10bd a438 88be
000002e0: 4035 eabc 20a8 5c3d 88cf 753d a236 4b3e
000002f0: 7ac0 303e c9a0 35be 13f2 60be 60df e8bd
00000300: df96 5b3e 05ec 90be 1f02 9cbe e37f 39be
00000310: 709e d4bc 13f1 1b3e 0ea7 f0bd cd15 8ebe
00000320: 7ee2 89be 8e3d 86bd ab9d 95be f901 3e3c
00000330: 8197 fa3d 8c94 a3bd 2541 b73d 6b94 143e
00000340: 92bd 4e3e da32 9abe 2908 763c 153a 13be
00000350: 3ac7 f9be 9aa4 96bd 5ee4 a3be f16e 543e
00000360: 4f01 373e 5c28 2b3e 7680 a1bf 5bc9 c4be
00000370: faaf 1cbe a03b 803d 72df a5be 5afd 513e
00000380: a1a5 a0bd b245 263d 2fe6 8abe 2b9c 82bd
00000390: c8c4 963d 65bc 9d3e 54ba 51be 79ba 07be
000003a0: 78ae 863d 7615 363e 4ae5 87be 00b0 f1bd
000003b0: baa1 80be a7c7 943e de01 ddbd a2c2 423e
000003c0: 02f5 31bd fb2c 37be e316 98bd 2555 2e3e
000003d0: de7a 0bbe 9217 a73d 44a5 6fbe 59a9 a63e
000003e0: feae 47be a21c 8cbf 5ea4 4dbe 013a 81be
000003f0: 1af1 c4bd f0ec a2bc 5c42 013e 4a94 81be
0.124519035 -0.3057733 -0.15369344 -0.50179917 -0.50920826 -1.2998886 -1.0973049 -0.6400821
-0.66833085 0.24258555 2.534523 2.5287523 3.426743 1.8091063 1.7815517 2.5120356
3.5010593 0.26850972 0.22922832 0.3690851 0.05671216 -0.23705971 -0.37667924 0.09407035
0.21431634 -0.34862846 -0.07225754 0.02391417 -0.14933498 -0.06919299 -0.21115473 -0.14950238
-0.2882945 -0.007328868 0.18749961 0.15380466 0.29706702 -0.2777279 -0.038909286 0.30788884
-0.16741894 -0.21105856 -0.32013384 0.110616684 0.18709801 0.05635476 0.23670201 -0.5879469
-0.50795454 -1.3939389 0.019362452 -0.2332928 -0.2690517 -0.39504072 0.05341808 0.0011296473
0.021081584 0.056613646 -1.7956287 -0.5958365 -0.17551944 -0.18035035 -0.08461009 -0.102207825
-0.21505725 0.25555465 0.035248727 0.14417267 0.23455963 -0.20491472 -0.28234842 -0.6297126
-0.39093155 0.08052018 -0.06697932 -0.09664943 -0.28769788 0.9384003 0.8107504 -0.10121979
-0.1679663 -0.08304865 -0.09825776 0.10914621 0.15755051 -0.22771978 -0.1746208 -0.0972572
0.042272747 -0.1227539 -0.19667873 -0.05775711 -0.1543209 0.008706182 -0.23409054 -0.07905151
-0.11667925 -0.04368174 0.24846843 0.2073578 -0.10204837 -0.28992483 -0.22619376 -0.24260485
-0.030004323 -0.14043298 -0.22099537 0.07011378 0.020349741 -0.047407925 1.6554246 -3.5114539
-1.1628418 -0.51761085 -0.07173162 -0.71424055 0.009605879 -0.4835229 -0.077781506 -0.2945281
0.035721596 -0.19962724 0.15957248 -0.17848162 -0.23018594 0.22694072 0.023871899 0.05763314
-0.22038358 -0.069995984 -0.24292652 -0.21276756 -0.04528722 0.06113422 -0.259109 0.3073431
0.23257825 -0.29429367 0.1976662 -0.18975906 -0.25768915 0.29625902 -0.12716207 -0.104899675
0.039407194 0.17873776 0.024325937 -0.084982395 0.026811808 -0.16384025 -0.28516603 0.027193988
-0.021822777 0.1019848 -0.16973484 -0.31255507 -0.078466296 -0.3059855 -0.024897486 0.15447783
-0.13007934 -0.025552481 -0.13684417 -0.07191664 0.11757938 -0.1546788 0.08403832 -0.3985822
-0.00432829 0.3900966 -0.30915934 0.21741484 -0.017656093 -0.057820946 -0.3493724 -0.31602454
-0.24840899 -0.2645195 -0.2108802 -0.09208961 -0.31485355 -0.2643624 -0.035194874 -0.26605713
-0.028589845 0.053871274 0.06001237 0.1984506 0.17260924 -0.17737116 -0.21967344 -0.113707304
0.21444272 -0.2830507 -0.30470368 -0.18115191 -0.025954455 0.15228681 -0.11750613 -0.27751008
-0.26930612 -0.065547094 -0.29221854 0.01159715 0.12235928 -0.079873174 0.08947972 0.14509742
0.20189503 -0.30116922 0.015016594 -0.14377625 -0.4878481 -0.07355614 -0.32010168 0.20745446
0.17871593 0.16714615 -1.2617328 -0.38434872 -0.15301505 0.062613726 -0.32397038 0.20506802
-0.07844091 0.04059381 -0.2712874 -0.06377443 0.07361752 0.30807796 -0.20481235 -0.13254727
0.06576246 0.17781624 -0.2654212 -0.118011475 -0.25123388 0.29058573 -0.10791372 0.19019559
-0.04344655 -0.17888252 -0.0742624 0.17024668 -0.13621089 0.081587926 -0.23402888 0.32551077
-0.19500348 -1.0946238 -0.20082232 -0.25239566 -0.09616299 -0.019888371 0.1262297 -0.25308448

model.0.bias f4 [64]
00000000: e187 32be 6ab0 1840 2d12 88bd bc92 f6bd
00000010: 8036 c6be 1e37 ebbd fed9 9fbe 6a9c 9dbe
00000020: 0703 83be 5faf 87be a03b 3abc 52cf e93f
00000030: f2b3 8abe eb89 3bbe 429f 94be cfda 713c
00000040: ee3c 213d 731b a43d 45fe 753e c0a2 f53c
00000050: dd11 71be 55f2 cabd db6e 6d3d 8875 ae3d
00000060: 555a ccbe b090 453e 789b c8bd 0b16 65be
00000070: b0f2 f23f 0ebe 73be 7e4b 9fbe a616 29be
00000080: 7f8c 8dbe 00f8 a9be 8a39 54be 1d22 803c
00000090: 2f63 0b40 2cfb aebd 9f1e 3a3e 0069 43bc
000000a0: 0af3 8ebd b692 76be 68b4 b3bd ac96 ba3d
000000b0: 8d26 eebe 9a31 69bc de61 e7bd 83a3 01be
000000c0: 0d80 da3c ed81 64be 77f4 53be 3164 9ebe
000000d0: bb01 9f3d 91f0 88be cab0 1040 40cb 79be
000000e0: 06a9 133e 7b9b 85be 6407 91be b8df 9fbe
000000f0: f2b4 a4be 5abf d7bd e1be 67be aca8 41be
-0.17434646 2.3857675 -0.06644092 -0.12039706 -0.38713455 -0.11485122 -0.31221002 -0.30783397
-0.25588247 -0.26500985 -0.011366755 1.8266394 -0.27090412 -0.1831433 -0.29027754 0.014761641
0.039364748 0.08013048 0.24022777 0.029984832 -0.2354197 -0.099095024 0.05796705 0.08518511
-0.39912668 0.19293475 -0.09795278 -0.2237169 1.8980312 -0.23802969 -0.31112283 -0.16512546
-0.27646253 -0.3319702 -0.20725074 0.015641266 2.1779287 -0.08544001 0.18175744 -0.011926889
-0.0697995 -0.24079403 -0.08774644 0.0911077 -0.46513787 -0.014233017 -0.112979636 -0.12660031
0.026672387 -0.22315188 -0.20698725 -0.30935815 0.07764002 -0.26746038 2.2607903 -0.2439394
0.14419946 -0.26095185 -0.2832595 -0.3122537 -0.321693 -0.10534544 -0.22631408 -0.18912

model.2.weight f4 [64, 64]
00000000: 9493 20be a7dd 8cbe 2248 c0bd a077 48bd
00000010: 3fec 063d b2e1 e1bd 1e2c 8d3d e63d c5be
00000020: 8859 8d3c 10e6 fbbd 0034 be3c dde2 44bd
00000030: f427 a0bd cc59 b4bd f873 c9bd 0020 aa37
00000040: e218 adbd 1ead f7bd 842c 74bd 04e3 4ebd
00000050: cea2 953d 36d2 3ebe bc3a c9bd 0c73 3bbd
00000060: beb0 613c b6dd ea3d 2c51 633d 13a1 d1bd
00000070: 842a e1bd cc68 2a3d e507 f63d 7ff1 02be
00000080: 3041 223c 2200 88bd 3dc1 03be 0812 51be
00000090: 7c86 94bd 906c adbd 7e0d 51bd 009f 9abd
000000a0: 728a 9e3d d632 d63d 18fd 3dbe 9642 d1bc
000000b0: d6e0 20be 94ba df3d b6c0 80bd 007c 6fbc
000000c0: 6623 d63d 1833 893d 0cb0 febd 8a76 d6bd
000000d0: 596b 61be 0e9e 0abc a88e 83be 6d36 38bd
000000e0: 3061 9f3d 967b 8dbe 1cda 7e3d 78af 81bd
000000f0: 8826 c63c 8a49 f53d 3711 143e dec1 c53d
00000100: 09c5 2cbe e385 cebd 25d6 adbd ac61 e43d
00000110: ef55 83be 9fcf 6c3d 74a4 cfbd 20a5 17be
00000120: 002d 3fbc 241f 2cbd 6826 dbbc c699 15bd
00000130: f3a3 343e 3606 b8bd 9833 843c e541 97bd
00000140: 7c3d 1bbe b27a 13be 1af4 2bbd 969b e4bd
00000150: c2f3 493d c020 55bd 6e12 553c 1044 4a3d
00000160: e3f2 39bb 7991 f5bd 22da f23d 0509 23be
00000170: 9ce3 d4bd 181a 1cbd 9f9e 553d be89 6abd
00000180: 083a ccbd 120d 863c 35db c23c 7f19 983d
00000190: 7e6f cdbd 8768 633d f4ff 1dbe d035 5e3d
000001a0: 5c51 a6bd a2e0 ff3c 7643 573d 19dc 863d
000001b0: 369d a9bd bc0e e6bd 4012 2bbb f85b f53c
000001c0: 8990 9f3d 7878 d0bc a7ad 58bd 37e5 68bd
000001d0: 19bd cabd 6e95 36bd f85b 83be 3c3f 82bc
000001e0: ee17 e03d 5b06 61bd 2480 c6bd c4fe 513d
000001f0: b78d 2ebd 7c04 ddbd 3658 be3d acfe febd
00000200: 7064 48be f421 bbbe 880e a7bd 0416 513d
00000210: 2131 aabe 78af 8cbe 2acb 9a3d b196 f5bd
00000220: f0ce 2f3d fa6d fe3d e2b3 f73d f185 36be
00000230: 98af 20bd 38f2 053d 1019 793d 08ec a0bc
00000240: 74be 88bc fdb4 abbd 9c19 b7bd 66ee a9bc
00000250: b8ab 973d b9b4 85be b06f 4c3c 644c f73d
00000260: 1cd0 30be 0035 303a e8a1 ea3c aeb3 24be
00000270: 1fac c4be 9e5f b1bd 15f2 86bc 2156 dabd
00000280: e8b7 48bd 814a 1bbb df77 4fbe aed7 9bbe
00000290: b3ba 06be 64ae 1abe b2ef b53d 1e12 ec3d
000002a0: 2281 a1bd f091 023d 4f59 1cbe b15a 573d
000002b0: 5af6 3ebe 5be8 bfbd 26db c23d 7426 16bd
000002c0: 3ab0 d0bc e835 bc3c 97e4 e0bc a8cd 64bd
000002d0: 120b 89bd 6345 3ebd 0ace ecbd 542a 9ebd
000002e0: 2ebf b2bd 8602 65bd 84ba 0d3d e82e f83c
000002f0: 9c13 8f3d e0a2 0abc e239 bd3d b841 36bd
00000300: 4185 edbd 0036 1cbb f059 df3c 48a3 893d
00000310: c8b7 e9bc bbef 11be 8c70 a4bd 8a37 d7bd
00000320: 9c39 fc3d 7494 eb3d 74db 74bd ccec 4bbe
00000330: bcc9 793d 781f e93d 80d8 6ebb 00ec 8c3a
00000340: bd89 a7bd fa50 4d3d 6878 adbd f6e2 a3bd
00000350: 464e a7bd b4ea 78bd acda cfbd 1017 b3bd
00000360: 6013 f6bd a812 1b3d 4ab3 9cbd 4fb3 e0bd
00000370: 218e d8bd 8cba 143d ce84 f8bd 587e e9bd
00000380: 4424 9dbd 3c50 ebbd cb76 c2bc a975 6cbd
00000390: 90c6 e1bd eea4 f8bd 030a b2bc 808d f7bd
000003a0: 7c82 26bd ee00 d1bd a075 cf3c e0da 083c
000003b0: 3333 06be 5b43 bbbd a4d1 ed3d e027 edbd
000003c0: e8f3 aebc ac05 20bd 610b ebbd 7cff f4bd
000003d0: 48db f0bd b498 4abd 8431 bcbe 4008 67bc
000003e0: 1686 b6bd b9ff 0fbd 00be adb9 28dd 87bd
000003f0: d8ba 283d 1e5c c2bd 60f3 943b 5e6f 903d
-0.15681297 -0.27512857 -0.09388758 -0.04894221 0.032940146 -0.11029376 0.0689318 -0.38523787
0.017254606 -0.1229974 0.023218155 -0.048067916 -0.078201205 -0.0880619 -0.098365724 2.028048e-05
-0.08452012 -0.12093566 -0.059612766 -0.050509468 0.07306443 -0.18634877 -0.09825656 -0.045764014
0.013775049 0.11468069 0.055497333 -0.102358006 -0.10994437 0.04160385 0.120132245 -0.12787436
0.009903237 -0.0664065 -0.12866683 -0.20417035 -0.07252213 -0.08467972 -0.051038258 -0.07549858
0.0774125 0.10458915 -0.18553579 -0.025544446 -0.15710768 0.10924259 -0.06286757 -0.014616966
0.104559705 0.066991985 -0.12435922 -0.10471828 -0.22013606 -0.008460535 -0.25694776 -0.04497378
0.07782209 -0.2763335 0.062219724 -0.06332296 0.024188295 0.11976917 0.14459692 0.09656118
-0.16872038 -0.100841306 -0.084881105 0.11151442 -0.256515 0.05781519 -0.10138789 -0.14809084
-0.011668444 -0.042021886 -0.026751712 -0.036523603 0.17640667 -0.0898556 0.016137883 -0.07385615
-0.15160173 -0.14402273 -0.04198084 -0.11162488 0.04930473 -0.052033186 0.013004882 0.049381316
-0.0028373532 -0.11990637 0.11858012 -0.1592141 -0.103949755 -0.038110822 0.052153226 -0.057260267
-0.09972006 0.016363654 0.023786167 0.07426738 -0.10031031 0.055519607 -0.1542967 0.05425054
-0.08120987 0.031235043 0.05255457 0.06584949 -0.08281939 -0.11233279 -0.0026103407 0.02995108
0.0779124 -0.025448069 -0.052899983 -0.05685922 -0.09899349 -0.0445761 -0.25656104 -0.015899293
0.10942064 -0.0549377 -0.0969241 0.051268354 -0.04261562 -0.10791871 0.09294169 -0.124509186
-0.19569564 -0.36549342 -0.081570685 0.051046386 -0.33240607 -0.27477622 0.07558282 -0.11991633
0.04292196 0.1242332 0.12094857 -0.17824532 -0.03922996 0.0327017 0.060814917 -0.019643798
-0.016692378 -0.0838413 -0.089404315 -0.02074356 0.074057996 -0.26114443 0.0124778 0.12075117
-0.17266887 0.0006721765 0.028641656 -0.16084167 -0.38412568 -0.08660816 -0.016472856 -0.10660959
-0.04900351 -0.002369553 -0.20260571 -0.30437988 -0.13157158 -0.15105587 0.08883609 0.11526893
-0.07885958 0.031877458 -0.15268444 0.052576724 -0.18648663 -0.0937049 0.095144555 -0.036657766
-0.025474656 0.022974923 -0.02745275 -0.05586019 -0.066915646 -0.04645289 -0.11562736 -0.07722917
-0.08727871 -0.05591061 0.034601703 0.030295804 0.06986162 -0.008461684 0.09239556 -0.044496268
-0.11597682 -0.0023835897 0.027264565 0.067205966 -0.028530017 -0.14251606 -0.08029279 -0.1050864
0.123156756 0.115029246 -0.0597796 -0.1991455 0.060983405 0.11382955 -0.0036444962 0.0010751486
-0.08180568 0.050126053 -0.08470231 -0.08002274 -0.08169226 -0.060770705 -0.1014913 -0.08744633
-0.12015414 0.03785959 -0.07651384 -0.109717004 -0.10573984 0.036310717 -0.121347055 -0.11401051
-0.07672933 -0.11489913 -0.023738286 -0.057729397 -0.11024201 -0.12140833 -0.02173329 -0.12087536
-0.040651783 -0.102052554 0.025324643 0.008352965 -0.13105468 -0.091437064 0.116122514 -0.11579871
-0.021356538 -0.03906791 -0.1147678 -0.11962792 -0.117605746 -0.049462035 -0.36756527 -0.014101088
-0.089122936 -0.035155986 -0.00033138692 -0.06633979 0.041193813 -0.09490226 0.004545614 0.070524916

model.2.bias f4 [64]
00000000: 47e4 b0be bbdf bbbc 1366 29be e792 d63b
00000010: 5383 ffbd 9179 53bf 70e3 29be de5d 81bd
00000020: de72 a9be e4e6 65be 0019 a9be 906d d7bc
00000030: 20c5 1cbe 4e03 67be cde9 84be f78c b8be
00000040: 186e ee3c 9c22 e6be 332d 9ebe 8174 913d
00000050: 80ee 22bd 5e35 92be c566 e0bb 858f a5bd
00000060: 66a5 8fbe 15fe 03be bdaf 8240 f18c d4be
00000070: 45f7 a2be cd3c 7abd b424 01bc b34a 97bd
00000080: aa41 debe 456c 8bbe d5cc acbd 998e 9dbe
00000090: 7d0d 30bd 1ffd b1be 7a0f f9bb d1ce acbe
000000a0: a063 443b 2e20 59be ca6c 02bf b63c dcbb
000000b0: 0bae 51bd 48af 02be 883d cc3b 679c 6e3a
000000c0: 0fe9 babd 4723 ecbd 7fd5 c8bc 4a49 8bbe
000000d0: 5f68 efbe 7c55 d6bd 9d00 cabe 1595 18be
000000e0: 2d3b 98bd 1882 87bd 8e00 75bd e7e2 20be
000000f0: 9113 a1bd efef 613c 0135 31be 80f6 62bd
-0.34549162 -0.022933831 -0.16542844 0.006548274 -0.1247622 -0.8260737 -0.16590667 -0.06316732
-0.3309545 -0.22451359 -0.33026886 -0.02629736 -0.15309572 -0.22559854 -0.25959626 -0.36045048
0.029105231 -0.4494828 -0.3089386 0.071022995 -0.039778233 -0.2855634 -0.0068481886 -0.08084015
-0.28055876 -0.12889893 4.0839524 -0.4151378 -0.31829277 -0.06109314 -0.007882286 -0.073872946
-0.43409473 -0.2723104 -0.08437506 -0.30772856 -0.042981613 -0.3476343 -0.007600722 -0.33751538
0.0029966608 -0.21203682 -0.5094725 -0.0067211045 -0.05119137 -0.12762177 0.006232921 0.0009102285
-0.09126484 -0.11530166 -0.024515865 -0.27204353 -0.46759316 -0.104655236 -0.39453593 -0.1490062
-0.07433162 -0.0661661 -0.059814982 -0.15711556 -0.0786506 0.013790115 -0.17305376 -0.055410862

model.4.weight f4 [2, 64]
00000000: 2330 9d3d d77e 393d 5b42 5bbc d2c3 8f3d
00000010: 87de 6c3d 72ee 9ebe fa62 243c f928 1bbd
00000020: 00f1 95bd 4b5b 5d3e 991d 243e 804b 853d
00000030: 1294 513d 5c16 04be 7fbb 173e e8de 1e3e
00000040: 2568 943b f4bd 9e3c 2825 9f3d d4e5 0d3d
00000050: 68c5 e53c f58c a9bc 1537 7c3d 1f68 88bd
00000060: fb5d 33be 2ff3 2fbc 85cd 943f b31c 29be
00000070: 11e3 9dbb 8807 1abd 8f2f f03c beed 96bd
00000080: 104b db3d ca60 943d eb11 b6bd 2ca9 793e
00000090: a808 80ba bfec 05be 3912 de3d da30 9fbe
000000a0: ae2e 773d deee d83c 1c6b 21be 39b9 f0bc
000000b0: b450 c7ba 8ab4 28bc a546 e73d b8cc 0ebc
000000c0: ef53 393c 11b6 47bc b0f2 e13b d9dd f53c
000000d0: 49ba 703d b58a 283d 3d6b 07be 33df bdbd
000000e0: cc29 2a3d 8de0 093e 3c27 cf3d 74ad f93d
000000f0: b0d9 51bd 8775 5e3d 3854 723c 8ebd f9bb
00000100: 9a15 003e 6be6 343d 8ecf 2a3e eeb6 6e3c
00000110: e023 f3bc 9e2a 72be af79 de3d 8c66 9b3c
00000120: db75 8abd e86c fabd 7210 6b3e ea05 5e3d
00000130: 65c9 813c 66ba 813e fb18 603e db2e 613e
00000140: 4baf debb 93b3 bcbd 212e 2f3e 80fd 27bd
00000150: f9f6 05bd 1040 3d3d 173e 8fbc 9361 873d
00000160: 1096 5fbc 2831 4ebd ad95 a63f 6b3b dd3d
00000170: 4e70 aebc df55 093c 1687 5cbc d5bf 753c
00000180: f1df 973e d135 553c a9a6 39bd f4dd e9bc
00000190: 0687 40bd 8832 1a3e f956 e63c 5eda 493e
000001a0: 2877 ffbd b446 ff3d a895 7bbe 5671 debc
000001b0: 891e 27bd 7418 cabd 3801 aebd 7af0 483d
000001c0: 788e 87bc b321 b7bc 736e 673d daf2 653d
000001d0: a81a 24be 9285 2cbd 84b1 213d f73e 123e
000001e0: f27c 58bd 6285 c63c e545 9ebc b74c e13c
000001f0: af5a 63ba 8083 7abc 0bdf 8b3d 4336 433b
0.07675197 0.04528698 -0.01338252 0.07019772 0.057829406 -0.31041294 0.0100333635 -0.03788087
-0.07321358 0.21616857 0.16026916 0.06508541 0.0511666 -0.12899154 0.14817618 0.1551472
0.0045290166 0.019377686 0.07770759 0.03464301 0.028048232 -0.020697096 0.061575968 -0.066604845
-0.1751632 -0.010739132 1.162522 -0.16514854 -0.004818328 -0.03760484 0.029319553 -0.073695645
0.107076764 0.072450235 -0.08890136 0.2438094 -0.0009768205 -0.13078593 0.108433194 -0.31091958
0.06034725 0.026481088 -0.15763515 -0.029385196 -0.0015206547 -0.01029695 0.11292771 -0.008715801
0.011311515 -0.012189404 0.0068953857 0.030013012 0.058771405 0.041147906 -0.13224502 -0.092710875
0.041543767 0.13464566 0.10114905 0.12191287 -0.051232994 0.0543113 0.014790587 -0.0076214736
0.1250824 0.044165056 0.16680738 0.014569981 -0.029680192 -0.2364907 0.10863053 0.018969797
-0.067607604 -0.122278035 0.22955492 0.05420486 0.015843103 0.25337523 0.2188453 0.2199053
-0.006795799 -0.092139386 0.1710744 -0.04101324 -0.032706235 0.046203673 -0.017485661 0.06610408
-0.0136466175 -0.050339848 1.3014427 0.10802349 -0.021293785 0.00838229 -0.013459941 0.01499935
0.2966304 0.013013319 -0.045324955 -0.028548218 -0.04700377 0.15058339 0.028117644 0.19712207
-0.12473899 0.124646574 -0.24568808 -0.027153652 -0.040800605 -0.09867945 -0.08496326 0.04905746
-0.016547427 -0.022354936 0.056501817 0.056139804 -0.16025794 -0.04211957 0.039475933 0.14281832
-0.052853532 0.024233524 -0.019320438 0.0275024 -0.00086728757 -0.015290141 0.068296514 0.0029786981

model.4.bias f4 [2]
00000000: 8aac ee40 b778 f83f
7.458562 1.9411839
