DQN_RM/trained_models/lava_agent.pt (torch, 20639 bytes, 6 tensors)

model.0.weight f4 [64, 1]
00000000: d050 e53c 0601 b2bf 0b78 19bc 1cf7 d33c
00000010: 6054 13bd 1447 44bf 34d7 b0bf cd14 a13b
00000020: f0f7 6ebf c7e7 ab3c b30b 05bf 6b98 87be
00000030: 2207 b3bf 02ad 14be 5fbc 613c b2c1 373f
00000040: adbe 243d 694e d3bd e200 63bf ea25 abbc
00000050: 6ac9 73be 6440 f4be 6027 6bbf b123 7a3c
00000060: 629f 3d3d 66be 51bf a838 04bd e694 353d
00000070: 44c9 f1be 2f61 0ebe 58f0 2abf a80e f2be
00000080: 0663 69bf 80db bdbc 5228 84bf 71ec 843e
00000090: dae1 843b 2cd5 60bf 70fd fbbd 72a1 e63e
000000a0: 9659 9c3e fc61 90be 5c8e 66bf bd51 5bbe
000000b0: 990f 8abb c792 c3ba 7c99 6e3c d46b 21be
000000c0: eaed e23e c0e0 80be 2092 463c 81b0 7b3f
000000d0: e02a 53be 5c82 febe 2873 e9be f310 80bd
000000e0: 0059 05be fc99 23bf 828e 06be ace4 bd3c
000000f0: 2e17 0ebf 9fbc 83bf 36d3 9bbf b87b a5be
0.027992636 -1.3906562 -0.009366999 0.025874667 -0.03596914 -0.76670957 -1.3815675 0.0049158097
-0.9334707 0.020984543 -0.51970977 -0.26483473 -1.3986552 -0.14519122 0.013777821 0.7177993
0.040220905 -0.1031769 -0.8867322 -0.020892102 -0.23807302 -0.47705376 -0.91856956 0.015267299
0.046294577 -0.8193115 -0.032280594 0.044331454 -0.47223866 -0.1390426 -0.66772985 -0.47276807
-0.9116672 -0.023175955 -1.0324805 0.2596164 0.004055244 -0.87825274 -0.12304199 0.45045048
0.305371 -0.28199756 -0.90060973 -0.214179 -0.004213285 -0.0014921062 0.014562961 -0.1576379
0.4432214 -0.2517147 0.0121198 0.983162 -0.20621824 -0.4970883 -0.4559567 -0.06253233
-0.13022232 -0.63906837 -0.131403 0.023180328 -0.5550412 -1.0291938 -1.2173831 -0.32320952

model.0.bias f4 [64]
00000000: e9dd 0cc0 481c 833f dbe1 54bd 3292 0ec0
00000010: 6bd3 6bbb 26e3 25bf 6f51 563f 5378 05c0
00000020: a807 23be 9de0 a9bf 783e f740 44de 4a40
00000030: 21fc 3c3f ed50 08bd d965 60bf 7c39 cdc0
00000040: 4edf 30c0 fb7a 61bf 3006 f9bd 5132 26bc
00000050: 0141 e0bb 5659 38bf f25c 0dbf d519 38c0
00000060: 8af9 47c0 c8bf c6be 9b84 34bf f23c 31c0
00000070: dcdb f9be 5a79 143e a281 3dbf 80fb 7fbe
00000080: ece9 bcbe f072 0dbe 5ef1 c03f c6db 7a40
00000090: e9a1 a5be e6b4 6abf 141d 37bf bbd7 35c0
000000a0: 174a 2dc0 845f e3be c0e7 32bf ab2d 4abc
000000b0: 08e6 5abe eb21 06bf f3f3 a0bf f7bc a03f
000000c0: b19b 8bc0 802b c3bc 38aa 09c0 df66 8e40
000000d0: f2b6 5ebf 5059 20be b1a5 dcbb 3ef7 c1be
000000e0: fe33 21bb e03b e2be 7f16 2fbc 7b57 f8bf
000000f0: 04db 09bf c847 8dbb fbca 3e3f 0035 e2bb
-2.2010443 1.0243006 -0.051973205 -2.227673 -0.003598417 -0.64799726 0.8371801 -2.085469
-0.1592089 -1.3271672 7.7263756 3.169816 0.7382222 -0.0332803 -0.8765541 -6.413267
-2.7636294 -0.8807828 -0.12159383 -0.010143832 -0.0068436866 -0.72011316 -0.5521995 -2.8765767
-3.1246057 -0.38818192 -0.7051484 -2.7693448 -0.48800552 0.14499417 -0.7402593 -0.24998283
-0.36897218 -0.13813376 1.507366 3.919664 -0.3235009 -0.9168228 -0.71528745 -2.8412921
-2.707647 -0.4440881 -0.6988487 -0.01233999 -0.21376812 -0.52395505 -1.2574447 1.2557667
-4.3627553 -0.023824453 -2.1510143 4.4500575 -0.869979 -0.1565907 -0.006733619 -0.37883943
-0.002459764 -0.44186306 -0.010686516 -1.9401697 -0.53849816 -0.0043115355 0.74528474 -0.0069032907

model.2.weight f4 [64, 64]
00000000: f668 b2bd b8a8 e2bc 7b25 d0be 983e acbd
00000010: 759f a8be 90f6 c53c 88c2 d1bd b6ce f83d
00000020: 3a48 bc3d 503e eebd 6e29 6fbe c8f1 c5be
00000030: 489c d0bd 380a 47be e8e2 4dbd 74d7 29bd
00000040: f036 7f3c 28b2 903d 108b 1d3c 16a5 aebe
00000050: d20f 9abe c0a2 84bd 5c36 babd 3450 053d
00000060: c0cd 573c ec67 7e3d 4434 3ebd dc06 fdbd
00000070: 6016 febc e5fd dbbe a03e 21bc e81c 7a3d
00000080: 307d 3d3c e8e2 923d ab91 93be 8114 84be
00000090: a66f e63d 885d 983c 2068 aa3c b8be 4fbd
000000a0: e6a1 9f3d 48c0 d63d aece b1bd 01b1 42be
000000b0: 357e 80be 593c a4be c24b eabd bf85 dfbe
000000c0: 0819 c9bd d423 d6bd 74b7 aabd f433 b2be
000000d0: 827f d4bd 4403 d6bd d89e a6be 7c62 d7bd
000000e0: 0731 a5be c871 ae3c 081f 93be 80a7 a03d
000000f0: 10bc 8b3d f096 8fbd 1470 2cbd 409e 3b3b
00000100: e91a 3a3d 307c 783d 7820 05be 9f07 99bd
00000110: 1671 19bd 28d3 313d a840 3ebd 0bd3 2dbe
00000120: 7026 9cbd b861 64bd 6fd8 14be 63f4 cebc
00000130: 8aeb a03d 9093 7bbd 63f6 b43b a88d 94be
00000140: d6cc a13c a166 37be 0006 e83d 7034 ddbc
00000150: 8463 3cbe 88cf fe3c 4a48 b0bd d5ee 633d
00000160: 7cfe 1f3d 52da a8bd cc5d 1cbe 1df8 51bd
00000170: a4a1 07bd c83a 5b3d 547b eebd 26cc bd3d
00000180: 60a3 373c 00e6 203b 7a34 eabe e367 bdbe
00000190: c7b9 cb3c 0267 f93d eecd a5bd 5c35 dcbe
000001a0: 1312 b4be 2ef3 8f3d b2de d6bd 2287 dabd
000001b0: 4630 23be 2593 86be 775a d2bd 60d7 9abe
000001c0: e27e 9ebe 2007 3d3c b21e 12bd 7c02 72be
000001d0: d85d 81bc f8b9 863d cc0e 9dbd deed 6dbd
000001e0: 5f50 abbe c4f7 e6bd ccc6 73bd aaa8 23be
000001f0: 38b2 1bbd d0cd 00bc 7460 4c3d fee1 ccbd
00000200: ec71 62be 4997 8bc0 11fd e6bd b60b 3abe
00000210: ccf2 febd 4074 da3b 32d0 90c0 8800 56be
00000220: c41c a8bd 3f17 723d b69e 813f 788d 723f
00000230: d073 91c0 04e7 90bc 9f9c 943c 8b63 01c0
00000240: 6d31 fbbd 8dc2 68bc 3401 953d db91 17be
00000250: 3d8b bc3e 4ef6 e2bd 14ca fbbd 468f 7abd
00000260: 53fc e1be 4456 563d 8ebb 483d a7d8 37be
00000270: 8069 c23d ef18 7f3c f0f0 a7bd f4fd 243d
00000280: c81d 3ebd 0003 0a3d 7bc3 a8bd 6438 14be
00000290: de3a d6be 341b 8e3d 70c5 62bc bc53 c4bf
000002a0: ba55 61bf a8f1 aabc 4624 9f3d 6bee 78bd
000002b0: fdfe 26be 8609 8cc0 0580 0bbe 65f4 563f
000002c0: c563 42c0 f8a2 db3c fb54 86be fba9 7a3d
000002d0: ba6f f63d 982a 023d 52ad d23c 0282 fd3c
000002e0: ce5e 04be 00ba 83bc 9d80 18bd 9832 f4be
000002f0: 246a 09bd f39c 71c0 48f9 91c0 8809 3bbd
00000300: d84a 17bd aa00 aebd b294 10be d561 5f3d
00000310: 1466 37be f295 87bd b9c8 5e3d c17b 0cbe
00000320: 0622 dcbd 6127 4a3c e147 7c3d 40b6 f13c
00000330: 0d0f 16be 2831 3abe d928 30be da5a 83bd
00000340: 6655 f6bc fe5d 80bd 10a8 0a3d 4921 edbd
00000350: e8d0 74bd 94c9 e53d f0e2 26bd ae47 1dbe
00000360: 7ce5 473d a225 ab3d 4f4a 643d 5947 333d
00000370: 8021 b43a 5a63 e53b 8880 963c 5cf7 233d
00000380: 00de ce3b 162c 8e3d e144 c6bd eab6 93bd
00000390: 6a0e 0f3c 209e 403d 6642 cc3d a605 babd
000003a0: 73ab afbd 9806 b0bd d85e 5ebd 1107 35be
000003b0: 2474 4b3d 86e2 19be 4164 d1bd d9c0 adbc
000003c0: 3dae 053d 4e74 9d3d 64fd 4f3d 7627 87bd
000003d0: a853 57bd 6087 fbbd 5a97 15bd 310b 8ebc
000003e0: 255a 88bd 1e1f 943d 13f4 98bd 0684 4ebd
000003f0: 4243 e2bd b636 02bd 3e4f bcbc 749c 30bd
-0.08711426 -0.027668342 -0.40653595 -0.08410376 -0.32934156 0.024165422 -0.10242182 0.12148802
0.091934636 -0.11632979 -0.23355648 -0.38661027 -0.10186058 -0.19437492 -0.050265223 -0.041465238
0.015577063 0.070652306 0.009615675 -0.34110326 -0.30090195 -0.064763546 -0.090923995 0.03254719
0.013171613 0.062110826 -0.046436563 -0.12354824 -0.031016529 -0.42967144 -0.009841591 0.061062723
0.011565492 0.07172185 -0.28822073 -0.25796893 0.11251764 0.018599287 0.020801604 -0.050718993
0.077945516 0.104858935 -0.08681999 -0.19012834 -0.25096288 -0.32077292 -0.11440231 -0.43656728
-0.098192275 -0.104560524 -0.08335772 -0.34805262 -0.10375883 -0.104498416 -0.32543063 -0.10516831
-0.32263967 0.02129449 -0.28734612 0.07844448 0.068229795 -0.07011211 -0.042099074 0.002862826
0.04543582 0.06066531 -0.13000667 -0.07472157 -0.037461363 0.043414265 -0.04644838 -0.16975038
-0.07624519 -0.055757254 -0.14535688 -0.025263017 0.078574255 -0.061420023 0.0055225356 -0.29014325
0.019750994 -0.17910244 0.113292694 -0.027002543 -0.18397337 0.031104818 -0.08607538 0.05564769
0.039061055 -0.08244766 -0.15270156 -0.05126201 -0.033113137 0.053522855 -0.11644617 0.09267454
0.011208385 0.0024551153 -0.4574316 -0.36993322 0.024868859 0.1217785 -0.080959186 -0.4300946
-0.3517004 0.07028805 -0.104916945 -0.10670306 -0.15936384 -0.26284137 -0.10271161 -0.30242443
-0.3095618 0.011537343 -0.035673805 -0.2363376 -0.015791818 0.065784395 -0.07668838 -0.058088176
-0.33459756 -0.11277726 -0.05951576 -0.15982309 -0.03801176 -0.0078615695 0.049896672 -0.10004042
-0.2211377 -4.3622174 -0.11278737 -0.1816853 -0.124486536 0.00666669 -4.5254145 -0.2089864
-0.082086116 0.0591042 1.012656 0.94747114 -4.5453873 -0.017688282 0.018141089 -2.0217006
-0.122652866 -0.014206541 0.0727562 -0.14801733 0.3682498 -0.11082135 -0.12294403 -0.061171792
-0.4413782 0.052328363 0.04900699 -0.1795374 0.09492779 0.0155699095 -0.08200252 0.04028125
-0.04641512 0.033694267 -0.0824041 -0.14474636 -0.41841787 0.06938782 -0.013841018 -1.5338054
-0.88021433 -0.020867184 0.077705905 -0.060774248 -0.16308208 -4.3761625 -0.13623054 0.83966666
-3.0373394 0.026811108 -0.2623671 0.061197262 0.12033029 0.0317789 0.025717411 0.030945782
-0.1292679 -0.016079903 -0.03723203 -0.4769485 -0.03354849 -3.7752044 -4.56168 -0.045663387
-0.03693661 -0.084962204 -0.14119223 0.05453666 -0.17910033 -0.06620397 0.054390643 -0.13719083
-0.10748677 0.01233849 0.061591987 0.029505849 -0.14654179 -0.18182814 -0.17203082 -0.06413813
-0.030070018 -0.062679276 0.033851683 -0.11578614 -0.05976954 0.112200886 -0.04074377 -0.15359375
0.048802838 0.08356787 0.05573493 0.043769214 0.0013742894 0.007000369 0.018371835 0.040030822
0.0063130856 0.069420025 -0.09681106 -0.072126225 0.008731464 0.0470258 0.09973602 -0.090831086
-0.08577623 -0.08595008 -0.05428967 -0.17678477 0.049671307 -0.15027818 -0.102242 -0.021210121
0.03263687 0.07688199 0.05077876 -0.065993235 -0.052570015 -0.1228168 -0.036521293 -0.01733932
-0.06657819 0.07232498 -0.074684285 -0.050418876 -0.11047985 -0.031790458 -0.022987004 -0.043117955

model.2.bias f4 [64]
00000000: cc6c bebe d159 c6be 63d5 cc3e 105b 9abd
00000010: 1b14 00bd 5880 8abe 9bab 06be 1364 b3be
00000020: 5b9b c4be 135e 4bbe 7d50 c3bc 6184 a3be
00000030: 208c bf3d 5b96 65be f643 d93d 9d4c 5cbc
00000040: 352d 6dbe d41b d1be ed6d fc3d 03c7 b6bc
00000050: 31b8 9fbe 4a79 3cbd 1506 033f d6c3 3fbe
00000060: 9ef3 84bd c569 e6be 1bf5 92be 9ab9 d6bd
00000070: 567e 55be 71fa 23bc 2bb7 7f3d 233a 6cbe
00000080: 7495 17be 8af5 aebe 28cc d040 84a9 e5be
00000090: c021 0cbd 0507 8dbe 5496 e1bd 157a 08be
000000a0: 7082 d73e 037b 25be 60fc 723c e4e7 3c3f
000000b0: 14c1 743d 52c3 d2b9 60e8 3d3d 731e 51be
000000c0: a0cf 9cbc 0ece 27bd 2cf2 02bd 56c1 b13d
000000d0: 6a26 553d 9550 a1bd 0eb3 edbd 3d5a 45bd
000000e0: d2b0 a6be 644a c6bd b0d6 c4be 48c5 17be
000000f0: 54d0 aabe f561 653d a6a6 bbbe c3d7 8a40
-0.3719238 -0.387404 0.4000655 -0.075369 -0.031269174 -0.27051044 -0.131514 -0.35037288
-0.38399777 -0.19860105 -0.02384209 -0.31936935 0.093528986 -0.22420637 0.10608666 -0.013446
-0.23161776 -0.40841544 0.12325654 -0.022311693 -0.31195214 -0.046014108 0.51181155 -0.18727049
-0.06491779 -0.4500257 -0.28702626 -0.104846194 -0.20848975 -0.01000844 0.062430542 -0.23069052
-0.14803106 -0.34171706 6.5249214 -0.44855893 -0.034211874 -0.27544418 -0.11015001 -0.1332782
0.42091703 -0.16160206 0.014830679 0.73791337 0.059754446 -0.00040199846 0.04636419 -0.20421772
-0.019141972 -0.040967993 -0.031969234 0.08679454 0.052038588 -0.07876698 -0.116064176 -0.04818176
-0.32556778 -0.09682158 -0.38445044 -0.1482135 -0.33362067 0.056001622 -0.3665058 4.338838

model.4.weight f4 [4, 64]
00000000: b109 0ebd df56 8bbd 7933 013d b646 01bd
00000010: a55b 4bbb 2e72 29bf 487b 57bc 6c54 2cbe
00000020: 706c 953e 051f 88be b1cf 613e 26ba 833e
00000030: e4d6 8e3d 8bef 09be 9013 963d 02e9 28be
00000040: c96a fabd 3d84 b7be 17b7 72be 8cd0 1ebd
00000050: 7d4d 86bc 0568 f43d b644 97bd 2cd2 9e3e
00000060: aa45 d43d 83a8 8bbe fea2 13be f883 babc
00000070: 0195 073f 78e8 11bd 23ec a2bc c618 373e
00000080: fa9a 7abe 2542 47be bcf3 7f3e 4c1a 5abc
00000090: 9453 653d 2d9e 6c3e 72a1 903d f237 01bd
000000a0: 00aa 2e3d d8df 0e3d 945c 6f3d 0921 09be
000000b0: 6292 9e3d b0ba 60bc c54b 1ebd 1e53 5dbe
000000c0: d31b 45bd b294 debd 8045 bb3d e0c4 f43d
000000d0: 47e8 ee3d a884 3cbd 9ea8 efbd 5405 a6bc
000000e0: ae98 823e f2c2 ff3d 7728 9fbd a225 ae3c
000000f0: 46d6 a6be 7a9c b83c 76d2 c3bb 5905 9f3f
00000100: b721 ab3c fad8 563d ee9f 863d 9a7e 013c
00000110: aabb 173d ab0b 2abe 2d82 a9bd 2a7c 903d
00000120: 09ac ad3e 9669 5dbe 491b 813c 04d3 263e
00000130: f04b f6bc 3ffd 353e e62c cc3d ae82 77bb
00000140: e9fa 26bd 97c8 bdbe b3db 9cbe dc2f 9fbc
00000150: 7c29 7ebe 4ba7 913d 4d5b a5bd f5af 973e
00000160: f5f1 eabb e3b5 63bd 8f1a 01be b828 5a3d
00000170: f9b0 b83e fd02 fbbb 1557 7c3d dccb 6d3e
00000180: b4ae 1abe 05d8 933e c46f 973e 1463 a33b
00000190: fc4c fa3b e905 a2be b6e0 183d 0d1e 67bd
000001a0: 5023 2d3c bbbd dcbd fc71 25bd 28f2 cfbd
000001b0: c0bd bfbd e564 083d 07c7 6abd 1101 8dbe
000001c0: 0ea6 e93c 8307 2d3d 205f 2bbd 201a 86bb
000001d0: 4990 6f3d e89e 61bd 004a cfbc 04ec 45bd
000001e0: d13d c93e 80a2 2d3d 32c6 4f3a 47e4 96bd
000001f0: f121 0c3e fd26 8ebc 041a ebb9 c37f a23f
00000200: dd5d d4bc dad2 43bc 4c95 f6bf e121 4bbd
00000210: 419f 5d3b 89fe 2ebe c1b0 243e fc26 203e
00000220: b793 66be d133 6f3e 7100 7f3e 6bf6 673e
00000230: 7403 603d 14d5 0e3e 907c 5b3c c6be 42bd
00000240: 010c 18be fd32 bcbe 7e1a 2bbe fac4 2b3d
00000250: c5b0 af3d e16d 943c f726 e7bf 07f4 de3e
00000260: c1da 9e3d 51fe 65bd ed35 bd3e d6cb b23d
00000270: d778 a73e 3aeb 853c d550 43bd 30a3 bd3e
00000280: 594c aabd f1ef 31be 4c03 1940 2b82 72bc
00000290: 29a8 fcbb f83f 85be 663e e4bd df19 22bd
000002a0: 11c8 a0bf 756c 203b 6877 0b3d 063e 4b40
000002b0: e8dc 493d 6212 c93c dd6e 6bbc 1e67 903e
000002c0: f67d cbbc a2d2 60bd f00d 593c f8b2 9c3d
000002d0: 93da 333d 6121 943c 8407 8e3d 371b 76bd
000002e0: 428c 76be 8833 ae3c 90f3 1a3d d0f8 9fbd
000002f0: 4db2 b1be 8418 8c3b f925 04bc e760 a2bd
00000300: 4a51 663d f150 953d 8702 f3bd 492f 69bd
00000310: ec5d 68bd 9cb4 20bd a0eb aa3b f4f8 7d3d
00000320: 797a 94be 9bee 8ebe c88a 4f3e 7bc5 313e
00000330: 40b9 12bd a13d 1cbe 48a4 433d 53d5 11bc
00000340: d747 de3d 8cd1 84be ca0b aabe 8235 983b
00000350: c1ab d33e 1c11 8f3d b2b6 293d d0b5 60be
00000360: df23 eebc 8555 93bd f50f afbe 80f4 7fbb
00000370: 2e0a 9bbe 5550 9dbd 9af5 de3d 34e8 8f3e
00000380: 3f45 973e 6508 79be bfc6 7a3e 6bfa f6bc
00000390: 6f11 5b3d baa8 04be 28dd f13b 7f03 0c3d
000003a0: 1728 8e3d bf4b a33c 648c c13d 2527 d0bd
000003b0: 405b 713c 2e29 0b3b adbd e0bc 5682 803e
000003c0: 2e94 0cbd 0e6d 80be a072 73bd 323c ce3d
000003d0: 15be b0bc 8ec6 87bc 602b 8e3c b1fc b1bc
000003e0: 84fb 3e3e b696 abbd 28db abbd d1b9 1dbd
000003f0: c55b 8abe dc09 d73c f787 193d 3c3c 993f
-0.03467721 -0.06803679 0.03154323 -0.031561576 -0.0031029966 -0.6618985 -0.013151951 -0.1682908
0.29184294 -0.26586166 0.22051884 0.25727957 0.06974581 -0.13470285 0.0732795 -0.16495135
-0.12227399 -0.35843077 -0.23702656 -0.038773105 -0.016394371 0.11933903 -0.073861524 0.31019723
0.1036485 -0.27277002 -0.14417645 -0.022768006 0.52961737 -0.03562209 -0.01988799 0.17880544
-0.24473181 -0.19458826 0.24995321 -0.013311934 0.05598791 0.23107214 0.07062043 -0.031547494
0.042642593 0.034881443 0.0584379 -0.13391508 0.07742764 -0.013716385 -0.03864648 -0.21613738
-0.04812224 -0.10868205 0.091441154 0.119516134 0.11665397 -0.04602495 -0.11702083 -0.020266213
0.2550711 0.12488355 -0.0777139 0.02125818 -0.32585353 0.022535551 -0.0059760166 1.2423507
0.0208901 0.05245302 0.06573473 0.007903719 0.037044205 -0.16606013 -0.08276782 0.070549324
0.33920315 -0.21622309 0.01576008 0.16291434 -0.030065507 0.17772387 0.09969501 -0.00377671
-0.04076663 -0.370671 -0.30636367 -0.019432 -0.24820513 0.07111987 -0.08074055 0.29626432
-0.007169957 -0.055593383 -0.12607788 0.05326149 0.3607252 -0.0076602683 0.061606485 0.23222297
-0.15105706 0.28875747 0.29577458 0.0049861763 0.007638572 -0.31645134 0.037323676 -0.056425143
0.010567501 -0.10778376 -0.040391907 -0.101536095 -0.09362364 0.033299346 -0.057318714 -0.27539876
0.028521564 0.04224349 -0.041838765 -0.00409247 0.05848721 -0.055083185 -0.02530384 -0.048320785
0.39304975 0.0423913 0.0007925957 -0.07367759 0.13684823 -0.017352575 -0.00044842076 1.269524
-0.025923664 -0.011952126 -1.9264312 -0.049592856 0.0033816847 -0.17089285 0.16083051 0.15639871
-0.22517286 0.2335961 0.24902512 0.22652595 0.054690793 0.1394847 0.013396397 -0.047545217
-0.14848329 -0.3675765 -0.16709325 0.0419359 0.08578638 0.0181188 -1.8058766 0.43545553
0.07756568 -0.05615074 0.36955205 0.08730285 0.3270938 0.016347516 -0.04768451 0.37038565
-0.083153434 -0.17376687 2.3908262 -0.014801542 -0.007710476 -0.26025367 -0.11144714 -0.039575454
-1.2561055 0.0024478708 0.03404942 3.1756606 0.04928294 0.024544898 -0.014369694 0.28203672
-0.024840336 -0.054888375 0.013247952 0.07651323 0.04390962 0.018082323 0.06935027 -0.060084548
-0.24076942 0.021264806 0.037829936 -0.07811129 -0.34706345 0.0042753834 -0.008065694 -0.07928639
0.056229867 0.07290829 -0.118657164 -0.05692986 -0.056730196 -0.039234743 0.005216077 0.062005
-0.2899969 -0.27916417 0.20267785 0.17360489 -0.0358212 -0.15257885 0.047764093 -0.008900958
0.10853546 -0.25941122 -0.3321212 0.0046450505 0.41341975 0.06985685 0.041433997 -0.21944356
-0.029069839 -0.07194046 -0.34191862 -0.0039055645 -0.30281204 -0.07681338 0.108866885 0.28106844
0.29545018 -0.24319609 0.24489878 -0.030148705 0.053483423 -0.12954989 0.0073811 0.03418302
0.0694124 0.01993358 0.094506055 -0.10163716 0.014731228 0.0021234262 -0.027434194 0.25099438
-0.034321003 -0.25083202 -0.059435487 0.10070075 -0.021575013 -0.01657417 0.017354667 -0.021726938
0.18650633 -0.08378355 -0.0839141 -0.038507286 -0.2702314 0.026249819 0.03748318 1.1971507

model.4.bias f4 [4]
00000000: 973e b140 4f5b 7e40 1af6 d33f 9ffd e440
5.5388904 3.974323 1.6559479 7.1559596
