Double_DQN_RM/trained_models/chain_agent.pt (torch, 22431 bytes, 6 tensors)

model.0.weight f4 [64, 10]
000000 d2 2a 99 3d b2 36 83 be 50 92 2d 3e 35 78 d2 3c
       0.074788705 -0.25627667 0.16950345 0.025692085
000010 26 2f 3a 3e a0 89 a1 be 48 b9 88 be ee d1 a0 be
       0.18182048 -0.31550312 -0.26703858 -0.31410164
000020 e4 a1 29 bf 31 4e 7c 3e 71 e0 8c bb 3e ea 0d bd
       -0.6626265 0.24639203 -0.0042992164 -0.03464722
000030 92 dd be be 5e fe ce ba 11 bd 09 3d af bd 55 bd
       -0.3727842 -0.001579236 0.033627573 -0.05218285
000040 a8 2c 4d 3e b7 99 34 3e d0 91 8f be 17 0a 88 3e
       0.20036566 0.17636763 -0.28040934 0.26570198
000050 b5 bb 6b 3d 4e fa 74 be 5e f9 c1 be f4 32 bc 3d
       0.05755206 -0.23923609 -0.37885565 0.09189406
000060 38 3b 59 3e 7e 56 b4 be f9 57 9b bd c8 76 a6 3c
       0.21213996 -0.35222238 -0.07585139 0.020320311
000070 45 eb 18 be 0e b5 8d bd f2 38 58 be 27 17 19 be
       -0.14933498 -0.06919299 -0.21115473 -0.14950238
000080 56 9b 93 be 00 27 f0 bb e6 ff 3f 3e f8 7e 1d 3e
       -0.2882945 -0.007328868 0.18749961 0.15380466
000090 2b 19 98 3e 5a 32 8e be 58 5f 1f bd 9b a3 9d 3e
       0.29706702 -0.2777279 -0.038909286 0.30788884
0000a0 e0 e2 7f be 72 64 bb be c4 b4 fb be 5a 5e 74 bd
       -0.2498889 -0.3660007 -0.4916135 -0.059660293
0000b0 db 9f 24 3e 23 91 84 bd fd a1 9a 3e 00 a4 53 bf
       0.16076605 -0.06472995 0.30201712 -0.8267212
0000c0 45 0b c0 be f0 fb 00 bf 37 e8 36 40 3f ca a4 3f
       -0.37508598 -0.50384426 2.8579233 1.2874221
0000d0 15 70 e4 3f 13 b0 da bf 03 ef 26 c0 4b 7d 99 c0
       1.7846705 -1.7084984 -2.608338 -4.7965446
0000e0 d2 f2 1b bf d3 94 45 bf 04 87 29 bf 13 fa b4 3e
       -0.6091739 -0.7718021 -0.6622164 0.3534704
0000f0 5e bb 33 be c3 ad 38 be 0e 48 ad bd 56 52 d1 bd
       -0.17551944 -0.18035035 -0.08461009 -0.102207825
000100 f8 37 5c be 0f d8 82 3e f8 60 10 3d 00 a2 13 3e
       -0.21505725 0.25555465 0.035248727 0.14417267
000110 66 30 70 3e 2a d5 51 be 3b c5 38 be 38 5c 4c be
       0.23455963 -0.20491472 -0.18043987 -0.19957054
000120 69 c0 49 3e 03 0f 4a 3e 71 ae 85 be ff 85 26 bf
       0.19702305 0.19732289 -0.2610965 -0.6504821
000130 08 86 9d bf 50 b8 81 bf 98 de 85 be f0 2c 16 be
       -1.2306528 -1.0134373 -0.26146388 -0.1466558
000140 5c ff 2b be 69 15 aa bd 5d 3b c9 bd 0c 88 df 3d
       -0.1679663 -0.08304865 -0.09825776 0.10914621
000150 ec 54 21 3e 60 2f 69 be cc cf 32 be c8 2e c7 bd
       0.15755051 -0.22771978 -0.1746208 -0.0972572
000160 30 26 2d 3d 66 66 fb bd 26 66 49 be b8 92 6c bd
       0.042272747 -0.1227539 -0.19667873 -0.05775711
000170 4c 06 1e be 60 a4 0e 3c 6e b5 6f be c2 e5 a1 bd
       -0.1543209 0.008706182 -0.23409054 -0.07905151
000180 88 f5 ee bd a0 eb 32 bd 82 6e 7e 3e 9a 55 54 3e
       -0.11667925 -0.04368174 0.24846843 0.2073578
000190 bc fe d0 bd 07 71 94 be 56 9f 67 be 68 6d 78 be
       -0.10204837 -0.28992483 -0.22619376 -0.24260485
0001a0 a0 cb f5 bc aa cd 0f be 9c 4c 62 be d0 97 8f 3d
       -0.030004323 -0.14043298 -0.22099537 0.07011378
0001b0 80 b4 a6 3c d0 2e 42 bd 5a a1 3f be 9d bf 49 3e
       0.020349741 -0.047407925 -0.18713894 0.19702001
0001c0 a5 a0 b1 be 81 0f 4c bd 03 0b d6 3d 91 22 f4 3d
       -0.34692875 -0.049819473 0.10451319 0.119206555
0001d0 de 4b a9 be b8 d3 4a bd 77 07 87 3e 10 38 55 3d
       -0.33065695 -0.049518317 0.26372883 0.05205542
0001e0 cf 50 12 3d 15 6b 4c be f8 66 23 3e e3 c3 36 be
       0.035721596 -0.19962724 0.15957248 -0.17848162
0001f0 dd b5 6b be 26 63 68 3e 00 8f c3 3c ba 10 6c 3d
       -0.23018594 0.22694072 0.023871899 0.05763314
000200 3c ac 61 be 0e 5a 8f bd bb c1 78 be bd df 59 be
       -0.22038358 -0.069995984 -0.24292652 -0.21276756
000210 18 7f 39 bd e0 67 7a 3d ef a9 84 be 13 5c 9d 3e
       -0.04528722 0.06113422 -0.259109 0.3073431
000220 fe 28 6e 3e a9 ad 96 be 02 69 4a 3e 33 50 42 be
       0.23257825 -0.29429367 0.1976662 -0.18975906
000230 d5 ef 83 be 43 af 97 3e c6 36 02 be a4 d5 d6 bd
       -0.25768915 0.29625902 -0.12716207 -0.104899675
000240 70 69 21 3d 08 07 37 3e 30 47 c7 3c 40 0b ae bd
       0.039407194 0.17873776 0.024325937 -0.084982395
000250 70 a4 db 3c bd c5 27 be ea ee 96 be db eb 8f 3c
       0.026811808 -0.16384025 -0.29479152 0.01756852
000260 dc cf 00 bd dd 26 bd 3d d6 43 45 be 38 07 a0 be
       -0.03144823 0.09235928 -0.19264159 -0.31255507
000270 f0 b2 a0 bd 22 aa 9c be d0 f5 cb bc 70 2f 1e 3e
       -0.078466296 -0.3059855 -0.024897486 0.15447783
000280 51 59 81 be 8c d3 5d be a4 ca ac be 98 7d a3 be
       -0.25263456 -0.2166273 -0.33748353 -0.31931758
000290 83 b0 02 be 20 7c 8e be 38 f9 21 be cd 8b 41 bd
       -0.12762646 -0.27829075 -0.15817726 -0.047252465
0002a0 bd ff 54 3e e6 84 48 3f 6f 65 a6 be 6f 6b 4e 3e
       0.20800681 0.78327787 -0.32499263 0.2015817
0002b0 0a 43 e7 bc 88 be a0 bd f0 e0 b2 be f8 cd a1 be
       -0.028230209 -0.07848841 -0.3493724 -0.31602454
0002c0 ed 5e 7e be 1a 6f 87 be fb f0 57 be 7a 99 bc bd
       -0.24840899 -0.2645195 -0.2108802 -0.09208961
0002d0 4a 86 96 be 82 5a 87 be 80 28 10 bd a4 38 88 be
       -0.2939933 -0.2643624 -0.035194874 -0.26605713
0002e0 40 35 ea bc 20 a8 5c 3d 88 cf 75 3d a2 36 4b 3e
       -0.028589845 0.053871274 0.06001237 0.1984506
0002f0 7a c0 30 3e c9 a0 35 be c0 3f 50 be b4 1d b7 bd
       0.17260924 -0.17737116 -0.20336819 -0.08941212
000300 c1 f2 2b 3e 2a 80 60 3d 06 72 94 be d4 c6 0e be
       0.16791822 0.054809727 -0.28993243 -0.13943034
000310 04 70 dc ba cf 2e 67 3e 0e a7 f0 bd cd 15 8e be
       -0.0016818051 0.2257645 -0.11750613 -0.27751008
000320 12 bf 8b be c6 af 8d bd 40 7a 97 be 0a 70 02 3c
       -0.27294213 -0.06918292 -0.29585457 0.0079612825
000330 4c 25 f3 3d c4 06 ab bd f4 ce af 3d 4c db 10 3e
       0.11872348 -0.083509 0.08584395 0.14146155
000340 92 bd 4e 3e da 32 9a be 62 e9 43 40 5b dc 13 c0
       0.20189503 -0.30116922 3.0611196 -2.3103244
000350 af e0 5e c0 9d aa 36 bf 78 d0 4f bf 7e 43 c0 be
       -3.4824636 -0.71354085 -0.81177473 -0.37551492
000360 39 56 9e be f4 d4 29 be cc 01 70 be 00 3a b6 3c
       -0.30925158 -0.16585141 -0.23438185 0.022244453
000370 e0 53 1d be 98 a9 89 3d 1b 3f c9 be d9 3d 0b 3e
       -0.15364027 0.067218006 -0.39305958 0.13597812
000380 64 fb 80 bd b7 da d9 bd 3a 92 f5 be a8 bd 9f be
       -0.06297949 -0.1063742 -0.47963125 -0.31199384
000390 07 3b 88 bd 29 dd da 3c 54 ba 51 be 79 ba 07 be
       -0.066518836 0.026716786 -0.20481235 -0.13254727
0003a0 78 ae 86 3d 76 15 36 3e 4a e5 87 be 00 b0 f1 bd
       0.06576246 0.17781624 -0.2654212 -0.118011475
0003b0 ba a1 80 be a7 c7 94 3e de 01 dd bd a2 c2 42 3e
       -0.25123388 0.29058573 -0.10791372 0.19019559
0003c0 5b d0 75 3d 43 9c 20 bd 84 be 54 3d 34 07 c3 3d
       0.060013156 -0.039211523 0.051939502 0.09522858
0003d0 6c c8 89 be 8b d1 97 bc 6c ce 97 be a1 21 48 3d
       -0.26910722 -0.018532535 -0.29649675 0.048860196
0003e0 c0 61 dd 3d af 13 92 be a2 64 53 be 01 3a 81 be
       0.1080966 -0.28530642 -0.20643857 -0.25239566
0003f0 1a f1 c4 bd f0 ec a2 bc 5c 42 01 3e 4a 94 81 be
       -0.09616299 -0.019888371 0.1262297 -0.25308448

model.0.bias f4 [64]
000000 2e a2 65 be 3a 01 1d be 55 51 86 bd bc 92 f6 bd
       -0.22425148 -0.15332499 -0.065584816 -0.12039706
000010 6f 65 f0 be e1 50 2e 40 fe d9 9f be 4d bc 52 be
       -0.46952388 2.7236865 -0.31221002 -0.20579644
000020 07 03 83 be 5f af 87 be a0 3b 3a bc c8 8c 81 bc
       -0.25588247 -0.26500985 -0.011366755 -0.0158142
000030 f2 b3 8a be eb 89 3b be 42 9f 94 be 62 48 a8 3b
       -0.27090412 -0.1831433 -0.29027754 0.005135582
000040 51 5b aa bd 65 b0 83 3d f8 ae 85 3e 8e 91 3d 3d
       -0.083181985 0.06430129 0.26110053 0.04628139
000050 d1 ca 74 be ec a0 3c 40 8b cf 6a 3d 88 75 ae 3d
       -0.23905493 2.947322 0.057326835 0.08518511
000060 fa 6e 97 be 61 d1 3f 3e 78 9b c8 bd b2 01 32 40
       -0.29576856 0.18732215 -0.09795278 2.7813535
000070 5e 84 b2 3d 0e be 73 be f6 44 34 40 12 5b 45 be
       0.08716653 -0.23802969 2.816709 -0.19273022
000080 7f 8c 8d be 30 7a a2 be ec 81 a5 3d 79 43 92 be
       -0.27646253 -0.31733847 0.08081421 -0.28567103
000090 91 a7 14 3e 31 b2 a7 bd 71 6f 12 3e 00 69 43 bc
       0.14517047 -0.08188284 0.14300324 -0.011926889
0000a0 0a f3 8e bd 93 a1 90 be 3b 98 64 be 62 ea de 3d
       -0.0697995 -0.2824827 -0.22323696 0.10884549
0000b0 25 c3 77 be 2e d9 6c bc de 61 e7 bd 83 a3 01 be
       -0.24195535 -0.014456077 -0.112979636 -0.12660031
0000c0 05 30 00 3d ed 81 64 be df b7 57 be 78 d2 9a be
       0.031295795 -0.22315188 -0.21066235 -0.302387
0000d0 74 3c cc 3d 1e d6 b0 be e3 04 21 be ef 07 c5 be
       0.09972468 -0.34538358 -0.1572452 -0.38482615
0000e0 06 a9 13 3e 20 b9 8a be 64 07 91 be b8 df 9f be
       0.14419946 -0.27094364 -0.2832595 -0.3122537
0000f0 73 0b 9d be 5a bf d7 bd 53 a9 65 be d5 56 38 be
       -0.30672798 -0.10534544 -0.22427873 -0.18001874

model.2.weight f4 [64, 64]
000000 96 6a ef bd cc 46 78 3d 22 48 c0 bd a0 77 48 bd
       -0.116902515 0.060614392 -0.09388758 -0.04894221
000010 46 16 0f 3d 16 bd a5 be 1e 2c 8d 3d 9c e9 9d be
       0.03493335 -0.32370824 0.0689318 -0.30842292
000020 88 59 8d 3c 10 e6 fb bd 00 34 be 3c 3c 6c 95 bd
       0.017254606 -0.1229974 0.023218155 -0.07296035
000030 f4 27 a0 bd cc 59 b4 bd f8 73 c9 bd 00 20 aa 37
       -0.078201205 -0.0880619 -0.098365724 2.028048e-05
000040 da 34 09 3c 1e ad f7 bd 84 2c 74 bd 61 ed d9 bd
       0.008374417 -0.12093566 -0.059612766 -0.106409796
000050 ce a2 95 3d d5 3a 30 be 01 5d a1 3c 0c 73 3b bd
       0.07306443 -0.17209943 0.019697668 -0.045764014
000060 bc fe 61 3d b6 dd ea 3d 2c 51 63 3d 1a fd 9e be
       0.055174574 0.11468069 0.055497333 -0.31052476
000070 84 2a e1 bd cc 68 2a 3d a1 6c 1f be 30 f6 ae bd
       -0.10994437 0.04160385 -0.15568782 -0.0854305
000080 30 41 22 3c 22 00 88 bd 3c 29 fb bd 68 f0 68 be
       0.009903237 -0.0664065 -0.12263724 -0.22747958
000090 7c 86 94 bd 90 6c ad bd 00 a1 95 bb 00 9f 9a bd
       -0.07252213 -0.08467972 -0.004566312 -0.07549858
0000a0 72 8a 9e 3d d6 32 d6 3d 50 6a 46 be c1 fc 34 bd
       0.0774125 0.10458915 -0.19376493 -0.044186357
0000b0 51 e9 f3 bd 94 ba df 3d b6 c0 80 bd 00 7c 6f bc
       -0.11909736 0.10924259 -0.06286757 -0.014616966
0000c0 66 23 d6 3d 18 33 89 3d 0c b0 fe bd 8a 76 d6 bd
       0.104559705 0.066991985 -0.12435922 -0.10471828
0000d0 c0 8a 06 be 35 2f 68 bc 16 72 1b be 32 28 87 3d
       -0.13138866 -0.014171411 -0.15180239 0.065994635
0000e0 30 61 9f 3d 5b 67 12 be 1c da 7e 3d 78 af 81 bd
       0.07782209 -0.1429724 0.062219724 -0.06332296
0000f0 88 26 c6 3c 8a 49 f5 3d a2 f4 ae 3d de c1 c5 3d
       0.024188295 0.11976917 0.08542754 0.09656118
000100 d5 61 c1 be bf 2f 0a 3e 6a 67 93 bd ac 61 e4 3d
       -0.37769952 0.13494776 -0.07197459 0.11151442
000110 cf 8f b1 bd 2d 51 66 be 74 a4 cf bd 9a 0b b7 be
       -0.086700074 -0.22491904 -0.10138789 -0.3575104
000120 00 2d 3f bc 24 1f 2c bd 68 26 db bc aa 59 53 bd
       -0.011668444 -0.042021886 -0.026751712 -0.051599182
000130 f3 a3 34 3e 36 06 b8 bd 98 33 84 3c d2 58 40 bd
       0.17640667 -0.0898556 0.016137883 -0.046959706
000140 bc a5 9b bd 98 11 1f be b8 41 f1 bc 8c 93 d4 bd
       -0.07599971 -0.15534055 -0.029450282 -0.10379705
000150 6d a8 47 3d 3d a2 1b be 48 06 27 3d 10 44 4a 3d
       0.048744608 -0.15198608 0.040777475 0.049381316
000160 2e 00 37 3d d5 d0 d3 bd 22 da f2 3d 33 da 9d bf
       0.044677906 -0.10342566 0.11858012 -1.2332214
000170 10 ef d0 bd 18 1a 1c bd a2 60 1c 3e 11 e3 09 be
       -0.102018476 -0.038110822 0.15271237 -0.13465525
000180 08 3a cc bd c2 4b 81 3a e1 7a 2e bd 1b 06 3a 3d
       -0.09972006 0.0009864497 -0.042597655 0.04541598
000190 c4 77 b0 bd e4 7f 69 3d ad 43 0d be d0 35 5e 3d
       -0.086165935 0.05700673 -0.13795348 0.05425054
0001a0 5c 51 a6 bd 5a c6 5a 3d 9c d1 d8 bd 7b 25 2f 3d
       -0.08120987 0.05341182 -0.10586855 0.042760354
0001b0 d7 14 58 3d d0 19 bc bd 40 12 2b bb f8 5b f5 3c
       0.05275425 -0.09184611 -0.0026103407 0.02995108
0001c0 3f 7a 8e 3d 78 78 d0 bc 46 07 2d bd 30 13 5b bd
       0.0695691 -0.025448069 -0.042243265 -0.053485096
0001d0 1f 33 c4 bd f8 95 b5 bb a7 fc b7 3c 51 75 d5 3d
       -0.09580063 -0.0055415593 0.022459341 0.10422767
0001e0 ee 17 e0 3d cf 58 30 bd 24 80 c6 bd c4 fe 51 3d
       0.10942064 -0.043053444 -0.0969241 0.051268354
0001f0 aa ac 11 bd 7c 04 dd bd ee 54 b9 3d f5 e0 d6 bd
       -0.035565056 -0.10791871 0.09049402 -0.10492126
000200 e5 d8 84 be 22 27 fc bd 88 0e a7 bd 04 16 51 3d
       -0.25946727 -0.123121515 -0.081570685 0.051046386
000210 10 ce d2 bd 25 a2 a8 bd 2a cb 9a 3d cc 97 6e be
       -0.102932096 -0.082340516 0.07558282 -0.23300093
000220 f0 ce 2f 3d fa 6d fe 3d e2 b3 f7 3d 0a 1e b3 bd
       0.04292196 0.1242332 0.12094857 -0.08745964
000230 98 af 20 bd 38 f2 05 3d 10 19 79 3d 08 ec a0 bc
       -0.03922996 0.0327017 0.060814917 -0.019643798
000240 20 bd 8c bd 7e 8e c3 bd 9c 19 b7 bd 75 c9 06 be
       -0.0687201 -0.095486626 -0.089404315 -0.13162787
000250 b8 ab 97 3d 73 aa 12 be 0c ad 34 3d 64 4c f7 3d
       0.074057996 -0.14322834 0.044110343 0.12075117
000260 58 0c 1a be 00 35 30 3a e8 a1 ea 3c 96 06 0c bd
       -0.15043771 0.0006721765 0.028641656 -0.03418597
000270 9e d6 35 be 9e 5f b1 bd 40 31 39 3b 76 b3 a8 bd
       -0.17757651 -0.08660816 0.0028258115 -0.082373545
000280 e8 b7 48 bd 2a 68 9d 3d f4 6c 40 be 4e 3f 40 be
       -0.04900351 0.07685883 -0.18791562 -0.18774149
000290 e6 c6 e8 bd 8e a7 34 be 93 a7 e6 3c 1e 12 ec 3d
       -0.11366062 -0.17642042 0.028156077 0.11526893
0002a0 22 81 a1 bd f0 91 02 3d 1e 05 9e bd f8 39 f9 3c
       -0.07885958 0.031877458 -0.0771582 0.03042315
0002b0 bd 88 c7 bd c4 a3 25 be 26 db c2 3d 74 26 16 bd
       -0.09742878 -0.16175753 0.095144555 -0.036657766
0002c0 48 4e 59 3d e8 35 bc 3c 16 ba d0 bd a8 cd 64 bd
       0.05305317 0.022974923 -0.10191743 -0.05586019
0002d0 48 b1 56 bd 88 fe a8 bd f2 16 9f 3d 54 2a 9e bd
       -0.052415162 -0.08251673 0.07768048 -0.07722917
0002e0 2e bf b2 bd 76 ab 3b be 84 ba 0d 3d e8 2e f8 3c
       -0.08727871 -0.18327126 0.034601703 0.030295804
0002f0 9c 13 8f 3d e0 a2 0a bc e2 39 bd 3d b8 41 36 bd
       0.06986162 -0.008461684 0.09239556 -0.044496268
000300 31 1d ee bd 00 36 1c bb f0 59 df 3c 48 a3 89 3d
       -0.116266616 -0.0023835897 0.027264565 0.067205966
000310 c8 b7 e9 bc 6d 23 12 be 8c 70 a4 bd 22 97 ce bd
       -0.028530017 -0.14271326 -0.08029279 -0.1008742
000320 9c 39 fc 3d 74 94 eb 3d 74 db 74 bd a0 d0 0a 3c
       0.123156756 0.115029246 -0.0597796 0.008472592
000330 bc c9 79 3d 78 1f e9 3d 80 d8 6e bb 00 ec 8c 3a
       0.060983405 0.11382955 -0.0036444962 0.0010751486
000340 ff f4 a7 bd 60 8c 4c 3d 68 78 ad bd 2e 38 a4 bd
       -0.08201026 0.04993856 -0.08470231 -0.08018528
000350 46 4e a7 bd 71 f1 79 bd ac da cf bd 10 17 b3 bd
       -0.08169226 -0.061021272 -0.1014913 -0.08744633
000360 6d 11 f7 bd a8 12 1b 3d 4a b3 9c bd 16 0f e1 bd
       -0.120638706 0.03785959 -0.07651384 -0.109892055
000370 f4 78 60 bd 8c ba 14 3d ce 84 f8 bd 6b d8 e9 bd
       -0.05480285 0.036310717 -0.121347055 -0.114182316
000380 44 24 9d bd 4c e3 87 3d 9b 54 8b bc 6f d2 5c bd
       -0.07672933 0.0663515 -0.017008116 -0.053911623
000390 90 c6 e1 bd 02 5c e3 bd 0f 85 b3 bc 80 8d f7 bd
       -0.11024201 -0.111015335 -0.021914033 -0.12087536
0003a0 7c 82 26 bd ee 00 d1 bd a0 75 cf 3c e0 da 08 3c
       -0.040651783 -0.102052554 0.025324643 0.008352965
0003b0 9f 6c 06 be 6d e6 bb bd a4 d1 ed 3d e0 27 ed bd
       -0.13127373 -0.091748096 0.116122514 -0.11579871
0003c0 e8 f3 ae bc ac 05 20 bd 84 89 eb bd 7c ff f4 bd
       -0.021356538 -0.03906791 -0.115008384 -0.11962792
0003d0 48 db f0 bd b4 98 4a bd b8 e6 fd bd 40 08 67 bc
       -0.117605746 -0.049462035 -0.12397522 -0.014101088
0003e0 16 86 b6 bd 02 e4 11 bd 00 be ad b9 28 dd 87 bd
       -0.089122936 -0.035617836 -0.00033138692 -0.06633979
0003f0 d8 ba 28 3d 1e 5c c2 bd 60 f3 94 3b 5e 6f 90 3d
       0.041193813 -0.09490226 0.004545614 0.070524916

model.2.bias f4 [64]
000000 10 47 9c be cb d4 12 be b7 db ea bc f2 f3 5a 3d
       -0.30522966 -0.14338987 -0.028669221 0.0534553
000010 38 ee 35 be c6 7e 97 3c 6a cf 23 bc 04 31 c1 be
       -0.17766654 0.018493067 -0.009998182 -0.37732708
000020 62 e1 8f bd 4e b6 d8 bc 8c 98 9c be dc bf 06 bd
       -0.0702541 -0.026454117 -0.30585134 -0.032897815
000030 63 02 1d be fe 5a d8 3b ff c4 96 be 77 a3 c3 be
       -0.15332942 0.006602644 -0.2944717 -0.3821065
000040 e4 01 80 40 bd 78 34 be 47 d3 23 be 45 99 f3 bd
       4.000231 -0.17624183 -0.15998565 -0.11894468
000050 4c 4b 7b be 1b fd 98 be d2 2d 1b bd d0 7a cc bd
       -0.24540442 -0.29880604 -0.037885495 -0.09984362
000060 cb 4f b6 bd e2 90 13 be af d1 34 bc e9 ab 2a bd
       -0.08901938 -0.14410737 -0.011036321 -0.041667853
000070 b2 40 26 be fc 40 9f bd 13 fa 8c be 26 49 8a bd
       -0.16235617 -0.07776067 -0.2753454 -0.06752233
000080 ae 7d a3 be 8e 89 ec be ee 28 a9 bd 91 74 6e be
       -0.31931823 -0.46198696 -0.0825976 -0.23286654
000090 c7 89 05 be 57 1e 86 be e0 3c 0e bf 01 9c ae be
       -0.13040839 -0.26195022 -0.5556164 -0.34103397
0000a0 ac 4a ce be 07 b9 0c be 66 d2 a3 be 30 f3 c8 bd
       -0.40291345 -0.13742457 -0.3199646 -0.09812009
0000b0 2e 35 a6 bc 16 29 fd bd 56 65 91 bd 04 00 a4 bc
       -0.02028903 -0.12361352 -0.070994064 -0.020019539
0000c0 0c 01 d5 bd 0e e8 f1 3c c2 b7 80 bc 99 a8 91 be
       -0.1040059 0.029529598 -0.015712623 -0.28448942
0000d0 37 f7 2c 3c ed 40 e2 be 7a 9d ae bd aa ce 34 be
       0.0105569875 -0.4419016 -0.0852613 -0.17656961
0000e0 4d 75 a3 bd 5d 10 bb bd 3e 87 99 bd c4 c4 00 be
       -0.07981358 -0.091339804 -0.074964985 -0.1257506
0000f0 8a bb ba bd e7 10 8e 3c 10 df d8 bd a4 bd 32 be
       -0.091178015 0.017342044 -0.10589421 -0.17455155

model.4.weight f4 [2, 64]
000000 0d 3c 51 3d e4 e7 d6 3d 16 df 35 be 57 59 94 3d
       0.05108266 0.104934484 -0.17760882 0.07243603
000010 a3 84 99 be 5e 72 6e bc 98 b0 82 3c 46 f5 be bd
       -0.29984006 -0.014553634 0.015953347 -0.09324126
000020 46 f4 ae 3d ce dc 13 bd a8 63 10 be b4 c0 03 bd
       0.08542685 -0.036099248 -0.14100516 -0.032166198
000030 a0 cd 54 3d 34 bf d8 3d 58 0d e5 bc 98 7c 3e 3e
       0.05195391 0.10583344 -0.027960464 0.18602216
000040 54 cd 49 3f 37 a0 70 3d 23 75 cf 3c 4b 58 fd 3d
       0.7882893 0.058746543 0.02532441 0.12370356
000050 77 69 81 3e ac 3c 10 bc af 6a 81 3b 3d 4b 64 bd
       0.25275776 -0.008803528 0.0039494853 -0.055735815
000060 d3 f4 dc bc bf 4f 03 bb 30 fa 02 bd ee cf 39 be
       -0.02697221 -0.0020036546 -0.03197688 -0.18145725
000070 9f bc 41 3b cc 73 9d bb 6d 79 cc bc 8e a2 6a bd
       0.002956189 -0.004805064 -0.024960244 -0.05728393
000080 e6 b3 01 3e 73 54 df 3d b8 84 bc bd 17 6a c8 3c
       0.12666282 0.10904779 -0.092050016 0.02446465
000090 8f 38 e4 bb 56 05 d5 3d 9a 26 91 3e dc 92 16 3e
       -0.00696475 0.104014084 0.28349763 0.1470446
0000a0 2d 02 91 be 29 da 0a 3e 70 23 08 3e 13 25 24 3d
       -0.28321972 0.13559784 0.13294768 0.04007442
0000b0 c5 72 4b ba 33 bf ea bc 65 af 91 bd 12 50 9b 3d
       -0.00077609374 -0.028655624 -0.07113532 0.075836316
0000c0 b6 ea 99 3d 16 dd af 3b 3b 4e b3 3c 73 5e 10 be
       0.07515471 0.0053669317 0.02188789 -0.1409853
0000d0 ca 35 b4 3c 0b b9 8c bd c9 39 61 bd 55 34 e9 3b
       0.021998305 -0.06871232 -0.05498675 0.007116834
0000e0 5e da 52 3d 34 bb 97 3d 65 7e 22 3d af 05 d4 3d
       0.051477782 0.07408753 0.03967132 0.103526466
0000f0 ac f1 81 bd 59 4a b1 bb d5 35 22 3c 15 cf d9 3d
       -0.063449234 -0.0054104743 0.00990053 0.10635201
000100 0e 52 2c 3d 08 b0 3d 3e 38 d3 90 3b 5a 6e f1 bd
       0.04207044 0.18524182 0.0044197105 -0.11788626
000110 1b f0 03 3e 19 5b 09 3d 37 a1 8c bc 6a c3 64 3d
       0.12884562 0.033534143 -0.017166717 0.055850424
000120 80 b3 ca ba db 7d 56 3d 91 be 3a 3e aa dc 8d 3b
       -0.0015464872 0.05236612 0.18236758 0.0043292837
000130 73 d1 41 3c e7 2e 1f bd e6 ff 12 3e 1d 95 9a be
       0.011829722 -0.03886309 0.1435543 -0.3019189
000140 53 54 6c 3f e4 0f 2e 3e 58 c7 52 bc bc 17 c8 3e
       0.9231617 0.1699825 -0.01286491 0.39080608
000150 b4 5f 43 bd 95 cc 2c 3e 86 d1 88 3d e3 7e 70 3d
       -0.04769869 0.16874917 0.066805884 0.05871476
000160 36 07 e6 3d 95 2c 52 bd 88 50 27 3e 40 f5 ac bd
       0.11231844 -0.051312048 0.16339314 -0.08445215
000170 cb 02 d5 bc 4b 61 06 3d ad ab 4c 3e f8 79 2c bb
       -0.026002308 0.03280763 0.19987364 -0.0026317816
000180 e4 c3 46 3e 3b ba 02 bd a9 a6 39 bd 24 dd 23 be
       0.19410664 -0.031915884 -0.045324955 -0.16002327
000190 bd ab 04 3e 7c bd ee bd 8e 8c d5 3d 36 b1 09 3e
       0.12956138 -0.11657235 0.10427199 0.13446507
0001a0 5f 19 74 be df d6 57 3c de 00 22 3e b7 b0 4b 3d
       -0.23837803 0.013173788 0.15820643 0.049729075
0001b0 d1 19 1c ba 9d dc 5b bd e3 0c b1 3d 91 89 25 bd
       -0.00059547747 -0.05367719 0.08645036 -0.040414397
0001c0 d4 1e 22 3d 8f 30 dd bb ec d9 25 bb 38 e9 86 bd
       0.03958018 -0.0067501734 -0.0025306894 -0.06587452
0001d0 98 ec 8e bc c8 ac bd 3d af 43 6c ba 3c 3e 5f 3d
       -0.017446801 0.09261471 -0.0009012771 0.05450271
0001e0 55 94 5f bd 49 a9 17 3c 8d f2 66 3c f0 8b 7b 3a
       -0.05458482 0.009256669 0.014095915 0.00095957424
0001f0 c1 cb 95 bd 99 61 ae bb 96 13 31 bc f0 a1 4d bd
       -0.073142536 -0.005321693 -0.010807892 -0.050203264

model.4.bias f4 [2]
000000 26 66 0b 41 5a cd a1 3f
       8.712439 1.2640793
