Double_DQN_RM/trained_models/lava_agent.pt (torch, 20639 bytes, 6 tensors)

model.0.weight f4 [64, 1]
-0.22025734 -0.8735544 0.2969566 0.34113318 -0.011990613 -0.76670957 -0.81681716 0.3247694
-0.9334707 0.14160356 -0.25230408 -0.06596154 -0.8551756 -0.123307504 0.73931146 -0.19650301
1.1265382 -0.08799533 -0.8867322 0.6005663 -0.20404151 -0.47705376 -0.91856956 0.60063994
0.9701627 -0.8193115 -0.0041976264 0.50323737 -0.47223866 -0.3240778 -0.66772985 -0.47276807
-0.9116672 -0.023175955 0.1270808 0.22945878 0.54362214 -0.87825274 -0.12304199 1.0305079
0.3215548 -0.28199756 -0.90060973 -0.10712424 -0.06596632 0.8694496 1.2180393 -0.037357897
0.839944 -0.2517147 -0.16311857 -0.09349145 -0.20621824 -0.4970883 -0.1658392 0.26962715
0.075396344 -0.63906837 -0.060596053 0.3901116 -0.5550412 -0.6338675 -0.41118845 -0.32320952
00000000: 248b 61be 43a1 5fbf b20a 983e 02a9 ae3e
00000010: 4774 44bc 1447 44bf ee1a 51bf 2d48 a63e
00000020: f0f7 6ebf 8600 113e 002e 81be d816 87bd
00000030: caec 5abf a588 fcbd 8443 3d3f 1638 49be
00000040: 6732 903f e536 b4bd e200 63bf b7be 193f
00000050: 42f0 50be 6440 f4be 6027 6bbf 8ac3 193f
00000060: 955c 783f 66be 51bf 3e8c 89bb 2ad4 003f
00000070: 44c9 f1be 87ed a5be 58f0 2abf a80e f2be
00000080: 0663 69bf 80db bdbc 7821 023e 3ef7 6a3e
00000090: d22a 0b3f 2cd5 60bf 70fd fbbd afe7 833f
000000a0: d5a2 a43e fc61 90be 5c8e 66bf f463 dbbd
000000b0: 5a19 87bd 4094 5e3f b6e8 9b3f 9804 19bd
000000c0: 9206 573f c0e0 80be 8e08 27be 7278 bfbd
000000d0: e02a 53be 5c82 febe c0d1 29be 920c 8a3e
000000e0: 6669 9a3d fc99 23bf 9133 78bd b5bc c73e
000000f0: 2e17 0ebf 2445 22bf 4b87 d2be b87b a5be

model.0.bias f4 [64]
-1.5805119 -0.2938064 -0.5035702 -0.31821746 -0.12596563 -0.64799726 -0.19963196 -0.7523929
-0.1592089 -0.36834887 -0.25376135 -0.28408137 -0.048330292 -0.027645497 -0.2664706 -0.44151792
-0.65921366 -0.38834316 -0.12159383 -0.31122783 -0.46579924 -0.72011316 -0.5521995 -0.26041973
-0.115769625 -0.38818192 -0.68678683 -0.2219162 -0.48800552 -0.02112366 -0.7402593 -0.24998283
-0.36897218 -0.13813376 -0.49257028 -0.055420082 -0.4692898 -0.9168228 -0.71528745 -1.0651371
-0.29684436 -0.4440881 -0.6988487 -0.3177465 -0.75851095 -0.20444691 -0.46126074 -0.09330366
-0.8922832 -0.023824453 -0.58826166 -0.061591752 -0.869979 -0.1565907 -0.04191985 -0.15981208
-0.2657988 -0.44186306 -0.4468749 -0.5112281 -0.53849816 -0.047268365 -0.054163028 -0.0069032907
00000000: 374e cabf cb6d 96be fae9 00bf 66ed a2be
00000010: 22fd 00be 26e3 25bf 526c 4cbe d29c 40bf
00000020: a807 23be 3998 bcbe 02ed 81be 1d73 91be
00000030: fcf5 45bd cf78 e2bc d66e 88be a30e e2be
00000040: 3ac2 28bf ead4 c6be 3006 f9bd 4159 9fbe
00000050: 3d7d eebe 5659 38bf f25c 0dbf bc55 85be
00000060: a018 edbd c8bf c6be 43d1 2fbf 003e 63be
00000070: dcdb f9be 870b adbc a281 3dbf 80fb 7fbe
00000080: ece9 bcbe f072 0dbe 2c32 fcbe 2b00 63bd
00000090: c146 f0be e6b4 6abf 141d 37bf 6a56 88bf
000000a0: fcfb 97be 845f e3be c0e7 32bf abaf a2be
000000b0: c62d 42bf 885a 51be 5e2a ecbe fd15 bfbd
000000c0: ac6c 64bf 802b c3bc 5198 16bf a247 7cbd
000000d0: f2b6 5ebf 5059 20be 26b4 2bbd c7a5 23be
000000e0: c816 88be e03b e2be c9cc e4be d8df 02bf
000000f0: 04db 09bf 799c 41bd 0dda 5dbd 0035 e2bb

model.2.weight f4 [64, 64]
-0.08711426 0.3741603 -0.38221067 -0.37017313 -0.30444515 0.024165422 -0.10242182 -0.16463064
0.091934636 -0.40259457 -0.20792024 0.44646737 0.2955518 0.613173 -0.33661467 -0.041465238
-0.27050927 0.070652306 0.009615675 -0.3512244 -0.27552792 -0.064763546 -0.090923995 -0.25351518
-0.2728756 0.062110826 -0.046436563 -0.40958592 -0.031016529 -0.1209514 -0.009841591 0.061062723
0.011565492 0.07172185 -0.2627685 -0.23240125 -0.1735479 0.018599287 0.020801604 -0.3683512
-0.20818108 0.104858935 -0.08681999 -0.1647753 -0.27992517 -0.3036119 -0.40047368 -0.12491967
-0.41582447 -0.104560524 -0.36988717 -0.036401615 -0.10375883 -0.104498416 0.5004183 -0.3912581
-0.32893315 0.02129449 -0.2624644 -0.2076537 0.068229795 -0.07011211 -0.042099074 0.002862826
0.04543582 0.06066531 -0.13000667 -0.07472157 -0.037461363 0.043414265 -0.04644838 -0.16975038
-0.07624519 -0.055757254 -0.14535688 -0.025263017 0.078574255 -0.061420023 0.0055225356 0.027507486
0.019750994 -0.17910244 0.113292694 -0.027002543 -0.18397337 0.031104818 -0.08607538 0.05564769
0.039061055 -0.08244766 -0.15270156 -0.05126201 -0.033113137 0.053522855 -0.11644617 0.09267454
0.011208385 0.0024551153 -0.13978685 -0.052287072 0.024868859 0.1217785 -0.080959186 -0.112448886
-0.03405984 0.07028805 -0.104916945 -0.10670306 -0.15936384 0.054809105 -0.10271161 0.0151266
0.008083658 0.011537343 -0.035673805 0.08131538 -0.015791818 0.065784395 -0.07668838 -0.058088176
-0.017326059 -0.11277726 -0.05951576 -0.15982309 -0.03801176 -0.0078615695 0.049896672 -0.10004042
-0.15210359 -0.07375186 -0.04905488 -0.09731631 -0.06392369 0.00666669 -0.24007095 -0.16903211
-0.082086116 0.06399407 0.003035221 -0.15328923 -0.24672577 0.057710484 0.082113646 -0.014117719
0.033777438 -0.017298605 0.0727562 -0.13230476 -0.012579101 -0.11082135 -0.12294403 0.068937935
-0.023193823 0.052328363 0.04904377 -0.14209569 0.09492779 -0.30345395 -0.08200252 0.04028125
-0.04641512 0.033694267 -0.14970604 0.011634397 -0.11914466 0.06938782 -0.013841018 -0.13937584
-0.07246861 -0.020867184 0.077705905 -0.08983814 -0.02378669 -0.09124165 -0.031349495 0.0851888
0.0064442786 0.026811108 -0.14833966 0.1444613 0.12033029 0.0317789 0.069906816 0.018775625
0.08366633 -0.016079903 -0.14066282 0.028399764 -0.03354849 -0.12901479 -0.19213262 -0.045663387
-0.03693661 -0.084962204 -0.14119223 0.05453666 -0.17910033 -0.06620397 0.054390643 -0.13719083
-0.10748677 0.01233849 0.061591987 0.029505849 -0.14654179 -0.18182814 -0.17203082 -0.06413813
-0.030070018 -0.062679276 0.033851683 -0.11578614 -0.05976954 0.112200886 -0.04074377 -0.15359375
0.048802838 0.08356787 0.05573493 0.043769214 0.0013742894 0.007000369 0.018371835 0.040030822
0.0063130856 0.069420025 -0.09681106 -0.072126225 0.008731464 0.0470258 0.09973602 -0.090831086
-0.08577623 -0.08595008 -0.05428967 -0.17678477 0.049671307 -0.15027818 -0.102242 -0.021210121
0.03263687 0.07688199 0.05077876 -0.065993235 -0.052570015 -0.1228168 -0.036521293 -0.01733932
-0.06657819 0.07232498 -0.074684285 -0.050418876 -0.11047985 -0.031790458 -0.022987004 -0.043117955
00000000: f668 b2bd f091 bf3e 1eb1 c3be 5587 bdbe
00000010: 3ce0 9bbe 90f6 c53c 88c2 d1bd ef94 28be
00000020: 3a48 bc3d e020 cebe 0be9 54be 5f97 e43e
00000030: 9152 973e e8f8 1c3f c258 acbe 74d7 29bd
00000040: 3180 8abe 28b2 903d 108b 1d3c afd3 b3be
00000050: ff11 8dbe c0a2 84bd 5c36 babd becc 81be
00000060: 5ab6 8bbe ec67 7e3d 4434 3ebd 3fb5 d1be
00000070: 6016 febc 5eb5 f7bd a03e 21bc e81c 7a3d
00000080: 307d 3d3c e8e2 923d 9889 86be 98fa 6dbe
00000090: 8ab6 31be 885d 983c 2068 aa3c 8798 bcbe
000000a0: 6c2d 55be 48c0 d63d aece b1bd dbba 28be
000000b0: 5a52 8fbe 0573 9bbe e30a cdbe e2d5 ffbd
000000c0: f2e6 d4be d423 d6bd da61 bdbe dc19 15bd
000000d0: 827f d4bd 4403 d6bd 6a1b 003f fb52 c8be
000000e0: ed69 a8be c871 ae3c bc61 86be 2ca3 54be
000000f0: 10bc 8b3d f096 8fbd 1470 2cbd 409e 3b3b
00000100: e91a 3a3d 307c 783d 7820 05be 9f07 99bd
00000110: 1671 19bd 28d3 313d a840 3ebd 0bd3 2dbe
00000120: 7026 9cbd b861 64bd 6fd8 14be 63f4 cebc
00000130: 8aeb a03d 9093 7bbd 63f6 b43b 6157 e13c
00000140: d6cc a13c a166 37be 0006 e83d 7034 ddbc
00000150: 8463 3cbe 88cf fe3c 4a48 b0bd d5ee 633d
00000160: 7cfe 1f3d 52da a8bd cc5d 1cbe 1df8 51bd
00000170: a4a1 07bd c83a 5b3d 547b eebd 26cc bd3d
00000180: 60a3 373c 00e6 203b 4924 0fbe f82a 56bd
00000190: c7b9 cb3c 0267 f93d eecd a5bd 9a4b e6bd
000001a0: 5582 0bbd 2ef3 8f3d b2de d6bd 2287 dabd
000001b0: 4630 23be 837f 603d 775a d2bd 8fd5 773c
000001c0: 5271 043c 2007 3d3c b21e 12bd ae88 a63d
000001d0: d85d 81bc f8b9 863d cc0e 9dbd deed 6dbd
000001e0: 61ef 8dbc c4f7 e6bd ccc6 73bd aaa8 23be
000001f0: 38b2 1bbd d0cd 00bc 7460 4c3d fee1 ccbd
00000200: 0bc1 1bbe 370b 97bd c5ed 48bd c64d c7bd
00000210: 6cea 82bd 4074 da3b 29d5 75be c116 2dbe
00000220: c41c a8bd 530f 833d 8fea 463b daf7 1cbe
00000230: aea5 7cbe d461 6c3d 332b a83d 014e 67bc
00000240: 365a 0a3d ceb5 8dbc 3401 953d e67a 07be
00000250: 9318 4ebc 4ef6 e2bd 14ca fbbd 552f 8d3d
00000260: f900 bebc 4456 563d 1fe2 483d 8881 11be
00000270: 8069 c23d 515e 9bbe f0f0 a7bd f4fd 243d
00000280: c81d 3ebd 0003 0a3d 8a4c 19be 339e 3e3c
00000290: 1e02 f4bd 341b 8e3d 70c5 62bc 8ab8 0ebe
000002a0: 6c6a 94bd a8f1 aabc 4624 9f3d 0ffd b7bd
000002b0: 4edc c2bc e7dc babd 5468 00bd 7777 ae3d
000002c0: 872a d33b f8a2 db3c 5ae6 17be aaed 133e
000002d0: ba6f f63d 982a 023d 4e2b 8f3d 57cf 993c
000002e0: 4159 ab3d 00ba 83bc ea09 10be 9fa6 e83c
000002f0: 246a 09bd 741c 04be 6abe 44be 8809 3bbd
00000300: d84a 17bd aa00 aebd b294 10be d561 5f3d
00000310: 1466 37be f295 87bd b9c8 5e3d c17b 0cbe
00000320: 0622 dcbd 6127 4a3c e147 7c3d 40b6 f13c
00000330: 0d0f 16be 2831 3abe d928 30be da5a 83bd
00000340: 6655 f6bc fe5d 80bd 10a8 0a3d 4921 edbd
00000350: e8d0 74bd 94c9 e53d f0e2 26bd ae47 1dbe
00000360: 7ce5 473d a225 ab3d 4f4a 643d 5947 333d
00000370: 8021 b43a 5a63 e53b 8880 963c 5cf7 233d
00000380: 00de ce3b 162c 8e3d e144 c6bd eab6 93bd
00000390: 6a0e 0f3c 209e 403d 6642 cc3d a605 babd
000003a0: 73ab afbd 9806 b0bd d85e 5ebd 1107 35be
000003b0: 2474 4b3d 86e2 19be 4164 d1bd d9c0 adbc
000003c0: 3dae 053d 4e74 9d3d 64fd 4f3d 7627 87bd
000003d0: a853 57bd 6087 fbbd 5a97 15bd 310b 8ebc
000003e0: 255a 88bd 1e1f 943d 13f4 98bd 0684 4ebd
000003f0: 4243 e2bd b636 02bd 3e4f bcbc 749c 30bd

model.2.bias f4 [64]
-0.3453726 -0.06980021 -0.106552124 -0.075369 -0.2117271 -0.26585895 -0.131514 -0.07763274
-0.409256 -0.28790984 -0.4183871 -0.44175377 -0.26023382 -0.15769894 -0.14540556 -0.09490846
-0.16014901 -0.12083715 -0.08115196 -0.053329017 -0.071756706 -0.06543079 -0.19013265 -0.29821977
-0.17165315 -0.116499946 -0.015225038 -0.17392188 -0.0056785494 -0.16415298 -0.05910153 -0.08611617
-0.13720588 -0.37169516 -0.18092914 -0.47440976 -0.034211874 -0.16036062 -0.11015001 -0.16460346
-0.15330441 -0.40763897 -0.30233356 -0.18916771 -0.25111568 -0.0422023 -0.23830694 -0.23714101
-0.27342308 -0.25967732 -0.031969234 -0.14555074 -0.3685786 -0.07876698 -0.116064176 -0.04818176
-0.331837 -0.09682158 -0.27083585 -0.26568004 -0.113144055 -0.21561782 -0.3692043 -0.05658107
00000000: add4 b0be 6af3 8ebd 0038 dabd 105b 9abd
00000010: fdce 58be aa1e 88be 9bab 06be eafd 9ebd
00000020: 018a d1be eb68 93be d536 d6be 8d2d e2be
00000030: 5e3d 85be d57b 21be 32e5 14be 5e5f c2bd
00000040: 1afe 23be 7879 f7bd 0033 a6bd 876f 5abd
00000050: 2ef5 92bd 9400 86bd 22b2 42be 43b0 98be
00000060: d8c5 2fbe 8697 eebd 7072 79bc 9418 32be
00000070: 2013 babb b817 28be 7214 72bd ad5d b0bd
00000080: b37f 0cbe d44e bebe 7d45 39be d6e5 f2be
00000090: c021 0cbd 9335 24be 5496 e1bd cf8d 28be
000000a0: d5fb 1cbe 0eb6 d0be 77cb 9abe 2eb5 41be
000000b0: 3c92 80be 52dc 2cbd bc06 74be 18d5 72be
000000c0: 1cfe 8bbe 6df4 84be 2cf2 02bd 410b 15be
000000d0: 56b6 bcbe 9550 a1bd 0eb3 edbd 3d5a 45bd
000000e0: 8ae6 a9be 644a c6bd ffaa 8abe 3707 88be
000000f0: 12b8 e7bd ebca 5cbe 5908 bdbe 8dc1 67bd

model.4.weight f4 [4, 64]
0.22044176 -0.062235806 -0.079628915 -0.031561576 0.3088799 -0.39236614 -0.013151951 0.017643658
0.27219272 0.36562455 -0.020087803 0.21434304 -0.21756777 -0.044204496 -0.27565 -0.2775449
0.011128873 -0.040796906 0.020767981 -0.06426035 0.10534465 -0.055133335 0.30565402 -0.07476336
-0.3237996 0.045840804 0.124638565 0.045964442 0.094281554 0.036793996 0.20065159 -0.007222177
0.20881008 -0.20367475 0.07615145 0.025326323 0.05598791 -0.01736489 0.07062043 -0.050203532
0.0708788 0.28939834 0.26845267 -0.08386823 0.077511035 -0.06385453 0.08425971 0.030269718
0.030520115 -0.10972635 0.091441154 -0.1285708 0.09765775 -0.04602495 -0.11702083 -0.020266213
0.2606975 0.12488355 0.012592132 -0.12901516 -0.007917255 0.060770806 0.017968662 -0.03335825
0.31744573 0.035720825 -0.05347714 0.007903719 -0.19733898 0.2953936 -0.08276782 -0.064647295
-0.24534863 -0.22151546 -0.073578864 0.25621402 0.33925256 -0.107819825 -0.2472911 -0.051426228
0.112738535 -0.053030297 -0.032285843 0.025967704 0.037630826 -0.2395144 -0.24826857 -0.038434118
-1.1126213 -0.0043625734 0.11166817 -0.012775689 -0.015861005 -0.0012613441 -0.10730739 -0.08348688
-0.20266971 -0.31372556 -0.045157045 0.115671575 0.007638572 -0.036309026 0.037323676 -0.06055508
-0.16182497 0.26447248 0.23421681 0.049779613 -0.07483497 -0.103643455 0.06458556 -0.047521126
-0.07690417 0.04261473 -0.041838765 -0.24148065 0.4077064 -0.055083185 -0.02530384 -0.048320785
0.3960897 0.0423913 0.07478649 0.27126792 -0.1751573 -0.026262123 -0.017529223 0.019745814
-0.22745404 -0.10197356 -0.029806836 -0.049592856 -0.2842392 -0.27327606 0.16083051 -0.12621179
-0.26440167 0.23904362 0.03654815 0.26571968 0.18420725 -0.12140375 -0.27114975 0.2525464
-0.07338445 -0.046957508 -0.06273082 -0.012569241 0.008796737 0.11709351 -0.37554157 0.33801782
-0.23496543 0.01766266 0.3482515 0.018286996 -0.05843912 0.21079597 -0.036047842 0.15429485
-0.19199985 -0.21179047 -0.021752149 0.046384443 -0.007710476 0.033782367 -0.11144714 -0.020730423
0.12111801 -0.36634806 -0.12911545 0.027212005 0.019949447 0.07007785 0.06734938 -0.103350446
-0.013217762 -0.053081006 0.013247952 -0.16394526 0.66334766 0.018082323 0.06935027 -0.060084548
0.34174764 0.021264806 -0.05724889 -0.33194378 -0.018265411 0.06444389 -0.00030852275 -0.078327954
-0.18061136 0.15511382 0.052073598 -0.05692986 0.02852433 -0.2282121 0.005216077 0.043112345
0.26407757 0.3185187 0.10057408 0.22775218 0.2690003 -0.07233912 -0.23652992 0.050424285
-0.04741721 0.058240365 -0.031537157 0.04497215 0.0048987567 0.01484267 0.3138224 -0.08782024
0.91983324 -0.054585706 0.054085582 -0.071892954 0.05820571 -0.043233648 0.16698916 -0.04402699
0.16814159 -0.31160176 0.12885912 0.036168315 0.053483423 0.020706424 0.0073811 -0.0015106874
0.16713333 0.27187282 -0.18220566 -0.005131202 -0.019973919 -0.0036884868 -0.17433827 -0.0040999255
0.023347815 -0.022519413 -0.059435487 -0.15203866 1.137439 -0.01657417 0.017354667 -0.021726938
0.19475752 -0.08378355 0.12585714 -0.26495826 0.051708717 -0.014113387 0.01785598 0.021906411
00000000: 7cbb 613e f9ea 7ebd 7c14 a3bd b646 01bd
00000010: 8225 9e3e 37e4 c8be 487b 57bc 6f89 903c
00000020: d85c 8b3e 2433 bb3e 2d8f a4bc be7c 5b3e
00000030: 16ca 5ebe c60f 35bd ff21 8dbe 5d1a 8ebe
00000040: e055 363c a81a 27bd 9d21 aa3c ee9a 83bd
00000050: f0be d73d 7ed3 61bd af7e 9c3e 881d 99bd
00000060: 10c9 a5be 91c3 3b3d 8142 ff3d 3645 3c3d
00000070: b016 c13d 4db5 163d 9c77 4d3e 03a8 ecbb
00000080: 4fd2 553e 1d90 50be 4bf5 9b3d 2679 cf3c
00000090: 9453 653d d040 8ebc 72a1 903d 38a2 4dbd
000000a0: e728 913d 052c 943e a172 893e 1bc3 abbd
000000b0: 1bbe 9e3d 2ac6 82bd 5b90 ac3d 33f8 f73c
000000c0: 5205 fa3c 35b8 e0bd 8045 bb3d 10a8 03be
000000d0: c900 c83d a884 3cbd 9ea8 efbd 5405 a6bc
000000e0: 257a 853e f2c2 ff3d 3b4f 4e3c 8d1c 04be
000000f0: 60b7 01bc cfea 783d 0433 933c a9a2 08bd
00000100: 3f88 a23e 0050 123d d80a 5bbd 9a7e 013c
00000110: 3b13 4abe d43d 973e 2d82 a9bd cd65 84bd
00000120: ac3c 7bbe f3d4 62be 84b0 96bd 7c2e 833e
00000130: 83b2 ad3e a4d0 dcbd e139 7dbe 4fa4 52bd
00000140: 76e3 e63d 4c36 59bd 293e 04bd 39ba d43c
00000150: c822 1a3d 4343 75be 1e3a 7ebe 186d 1dbd
00000160: 606a 8ebf ebf3 8ebb 48b2 e43d 2051 51bc
00000170: f0ee 81bc af53 a5ba fac3 dbbd 2bfb aabd
00000180: a688 4fbe a3a0 a0be 98f6 38bd 38e5 ec3d
00000190: fc4c fa3b c6b8 14bd b6e0 183d 9b08 78bd
000001a0: 72b5 25be f068 873e 88d6 6f3e b5e5 4b3d
000001b0: 1443 99bd 0543 d4bd 6f45 843d 83a5 42bd
000001c0: ef7f 9dbd c88c 2e3d 205f 2bbd b446 77be
000001d0: e5be d03e e89e 61bd 004a cfbc 04ec 45bd
000001e0: 45cc ca3e 80a2 2d3d a929 993d a1e3 8a3e
000001f0: 6f5c 33be aa23 d7bc 7299 8fbc f9c1 a13c
00000200: b6e9 68be 84d7 d0bd 772d f4bc e121 4bbd
00000210: cd87 91be d7ea 8bbe c1b0 243e aa3d 01be
00000220: a85f 87be dac7 743e 83b3 153d 690c 883e
00000230: d3a0 3c3e 87a2 f8bd 24d4 8abe c34d 813e
00000240: 964a 96bd 8456 40bd 0479 80bd 38ef 4dbc
00000250: 3020 103c b9ce ef3d fc46 c0be ac10 ad3e
00000260: c79a 70be 48b1 903c 054e b23e 9cce 953c
00000270: dc5d 6fbd e6da 573e e7a6 13bd 78ff 1d3e
00000280: 9c9b 44be 9adf 58be 9031 b2bc 9dfd 3d3d
00000290: 29a8 fcbb 615f 0a3d 663e e4bd d9d2 a9bc
000002a0: b80c f83d f991 bbbe d736 04be b6eb de3c
000002b0: 066d a33c fa84 8f3d 79ee 893d 66a9 d3bd
000002c0: 508f 58bc 786b 59bd f00d 593c 44e1 27be
000002d0: 27d1 293f 6121 943c 8407 8e3d 371b 76bd
000002e0: 8cf9 ae3e 8833 ae3c d07d 6abd 89f4 a9be
000002f0: 58a1 95bc 28fb 833d 39c1 a1b9 686a a0bd
00000300: 2ff2 38be 28d6 1e3e 204b 553d 492f 69bd
00000310: dbab e93c 6fb0 69be a0eb aa3b 9296 303d
00000320: 2d35 873e e214 a33e c9f9 cd3d de37 693e
00000330: 68ba 893e 8826 94bd e634 72be b289 4e3d
00000340: 8c38 42bd 738d 6e3d 1b2d 01bd b834 383d
00000350: c085 a03b ac2e 733c 54ad a03e 19db b3bd
00000360: 317a 6b3f 4395 5fbd d888 5d3d 9d3c 93bd
00000370: 1c69 6e3d c415 31bd 35ff 2a3e a555 34bd
00000380: 4f2d 2c3e 448a 9fbe a5f3 033e 3a25 143d
00000390: 6f11 5b3d 85a0 a93c 28dd f13b 4202 c6ba
000003a0: 0025 2b3e ea32 8b3e 1f94 3abe a423 a8bb
000003b0: 58a0 a3bc 8aba 71bb bb85 32be ab58 86bb
000003c0: eb43 bf3c a27a b8bc a072 73bd 06b0 1bbe
000003d0: 9a97 913f 8ec6 87bc 602b 8e3c b1fc b1bc
000003e0: 846e 473e b696 abbd b2e0 003e 9ca8 87be
000003f0: 85cc 533d d63b 67bc b446 923c 1375 b33c

model.4.bias f4 [4]
-1.023638 -1.0236442 -1.0155224 -1.0232373
00000000: 9206 83bf c606 83bf a3fc 81bf 71f9 82bf
